node {
  name: "action"
  op: "Placeholder"
  device: "/job:worker/task:0"
  attr {
    key: "_output_shapes"
    value {
      list {
        shape {
          dim {
            size: -1
          }
          dim {
            size: 1
          }
        }
      }
    }
  }
  attr {
    key: "dtype"
    value {
      type: DT_FLOAT
    }
  }
  attr {
    key: "shape"
    value {
      shape {
        dim {
          size: -1
        }
        dim {
          size: 1
        }
      }
    }
  }
}
node {
  name: "state"
  op: "Placeholder"
  device: "/job:worker/task:0"
  attr {
    key: "_output_shapes"
    value {
      list {
        shape {
          dim {
            size: -1
          }
          dim {
            size: 3
          }
        }
      }
    }
  }
  attr {
    key: "dtype"
    value {
      type: DT_FLOAT
    }
  }
  attr {
    key: "shape"
    value {
      shape {
        dim {
          size: -1
        }
        dim {
          size: 3
        }
      }
    }
  }
}
node {
  name: "advantage"
  op: "Placeholder"
  device: "/job:worker/task:0"
  attr {
    key: "_output_shapes"
    value {
      list {
        shape {
          dim {
            size: -1
          }
          dim {
            size: 1
          }
        }
      }
    }
  }
  attr {
    key: "dtype"
    value {
      type: DT_FLOAT
    }
  }
  attr {
    key: "shape"
    value {
      shape {
        dim {
          size: -1
        }
        dim {
          size: 1
        }
      }
    }
  }
}
node {
  name: "discounted_r"
  op: "Placeholder"
  device: "/job:worker/task:0"
  attr {
    key: "_output_shapes"
    value {
      list {
        shape {
          dim {
            size: -1
          }
          dim {
            size: 1
          }
        }
      }
    }
  }
  attr {
    key: "dtype"
    value {
      type: DT_FLOAT
    }
  }
  attr {
    key: "shape"
    value {
      shape {
        dim {
          size: -1
        }
        dim {
          size: 1
        }
      }
    }
  }
}
node {
  name: "buffer_size"
  op: "Const"
  device: "/job:worker/task:0"
  attr {
    key: "_output_shapes"
    value {
      list {
        shape {
        }
      }
    }
  }
  attr {
    key: "dtype"
    value {
      type: DT_INT64
    }
  }
  attr {
    key: "value"
    value {
      tensor {
        dtype: DT_INT64
        tensor_shape {
        }
        int64_val: 10000
      }
    }
  }
}
node {
  name: "seed"
  op: "Const"
  device: "/job:worker/task:0"
  attr {
    key: "_output_shapes"
    value {
      list {
        shape {
        }
      }
    }
  }
  attr {
    key: "dtype"
    value {
      type: DT_INT64
    }
  }
  attr {
    key: "value"
    value {
      tensor {
        dtype: DT_INT64
        tensor_shape {
        }
        int64_val: 0
      }
    }
  }
}
node {
  name: "seed2"
  op: "Const"
  device: "/job:worker/task:0"
  attr {
    key: "_output_shapes"
    value {
      list {
        shape {
        }
      }
    }
  }
  attr {
    key: "dtype"
    value {
      type: DT_INT64
    }
  }
  attr {
    key: "value"
    value {
      tensor {
        dtype: DT_INT64
        tensor_shape {
        }
        int64_val: 0
      }
    }
  }
}
node {
  name: "batch_size"
  op: "Const"
  device: "/job:worker/task:0"
  attr {
    key: "_output_shapes"
    value {
      list {
        shape {
        }
      }
    }
  }
  attr {
    key: "dtype"
    value {
      type: DT_INT64
    }
  }
  attr {
    key: "value"
    value {
      tensor {
        dtype: DT_INT64
        tensor_shape {
        }
        int64_val: 32
      }
    }
  }
}
node {
  name: "drop_remainder"
  op: "Const"
  device: "/job:worker/task:0"
  attr {
    key: "_output_shapes"
    value {
      list {
        shape {
        }
      }
    }
  }
  attr {
    key: "dtype"
    value {
      type: DT_BOOL
    }
  }
  attr {
    key: "value"
    value {
      tensor {
        dtype: DT_BOOL
        tensor_shape {
        }
        bool_val: false
      }
    }
  }
}
node {
  name: "filename"
  op: "Const"
  device: "/job:worker/task:0"
  attr {
    key: "_output_shapes"
    value {
      list {
        shape {
        }
      }
    }
  }
  attr {
    key: "dtype"
    value {
      type: DT_STRING
    }
  }
  attr {
    key: "value"
    value {
      tensor {
        dtype: DT_STRING
        tensor_shape {
        }
        string_val: ""
      }
    }
  }
}
node {
  name: "count"
  op: "Const"
  device: "/job:worker/task:0"
  attr {
    key: "_output_shapes"
    value {
      list {
        shape {
        }
      }
    }
  }
  attr {
    key: "dtype"
    value {
      type: DT_INT64
    }
  }
  attr {
    key: "value"
    value {
      tensor {
        dtype: DT_INT64
        tensor_shape {
        }
        int64_val: 10
      }
    }
  }
}
node {
  name: "optimizations"
  op: "Const"
  device: "/job:worker/task:0"
  attr {
    key: "_output_shapes"
    value {
      list {
        shape {
          dim {
            size: 3
          }
        }
      }
    }
  }
  attr {
    key: "dtype"
    value {
      type: DT_STRING
    }
  }
  attr {
    key: "value"
    value {
      tensor {
        dtype: DT_STRING
        tensor_shape {
          dim {
            size: 3
          }
        }
        string_val: "map_and_batch_fusion"
        string_val: "noop_elimination"
        string_val: "shuffle_and_repeat_fusion"
      }
    }
  }
}
node {
  name: "IteratorV2"
  op: "IteratorV2"
  device: "/job:worker/task:0"
  attr {
    key: "_output_shapes"
    value {
      list {
        shape {
        }
      }
    }
  }
  attr {
    key: "container"
    value {
      s: ""
    }
  }
  attr {
    key: "output_shapes"
    value {
      list {
        shape {
          dim {
            size: -1
          }
          dim {
            size: 1
          }
        }
        shape {
          dim {
            size: -1
          }
          dim {
            size: 1
          }
        }
        shape {
          dim {
            size: -1
          }
          dim {
            size: 1
          }
        }
        shape {
          dim {
            size: -1
          }
          dim {
            size: 3
          }
        }
      }
    }
  }
  attr {
    key: "output_types"
    value {
      list {
        type: DT_FLOAT
        type: DT_FLOAT
        type: DT_FLOAT
        type: DT_FLOAT
      }
    }
  }
  attr {
    key: "shared_name"
    value {
      s: ""
    }
  }
}
node {
  name: "TensorSliceDataset"
  op: "TensorSliceDataset"
  input: "action"
  input: "advantage"
  input: "discounted_r"
  input: "state"
  device: "/job:worker/task:0"
  attr {
    key: "Toutput_types"
    value {
      list {
        type: DT_FLOAT
        type: DT_FLOAT
        type: DT_FLOAT
        type: DT_FLOAT
      }
    }
  }
  attr {
    key: "_class"
    value {
      list {
        s: "loc:@IteratorV2"
      }
    }
  }
  attr {
    key: "_output_shapes"
    value {
      list {
        shape {
        }
      }
    }
  }
  attr {
    key: "output_shapes"
    value {
      list {
        shape {
          dim {
            size: 1
          }
        }
        shape {
          dim {
            size: 1
          }
        }
        shape {
          dim {
            size: 1
          }
        }
        shape {
          dim {
            size: 3
          }
        }
      }
    }
  }
}
node {
  name: "ShuffleDataset"
  op: "ShuffleDataset"
  input: "TensorSliceDataset"
  input: "buffer_size"
  input: "seed"
  input: "seed2"
  device: "/job:worker/task:0"
  attr {
    key: "_class"
    value {
      list {
        s: "loc:@IteratorV2"
      }
    }
  }
  attr {
    key: "_output_shapes"
    value {
      list {
        shape {
        }
      }
    }
  }
  attr {
    key: "output_shapes"
    value {
      list {
        shape {
          dim {
            size: 1
          }
        }
        shape {
          dim {
            size: 1
          }
        }
        shape {
          dim {
            size: 1
          }
        }
        shape {
          dim {
            size: 3
          }
        }
      }
    }
  }
  attr {
    key: "output_types"
    value {
      list {
        type: DT_FLOAT
        type: DT_FLOAT
        type: DT_FLOAT
        type: DT_FLOAT
      }
    }
  }
  attr {
    key: "reshuffle_each_iteration"
    value {
      b: true
    }
  }
}
node {
  name: "BatchDatasetV2"
  op: "BatchDatasetV2"
  input: "ShuffleDataset"
  input: "batch_size"
  input: "drop_remainder"
  device: "/job:worker/task:0"
  attr {
    key: "_class"
    value {
      list {
        s: "loc:@IteratorV2"
      }
    }
  }
  attr {
    key: "_output_shapes"
    value {
      list {
        shape {
        }
      }
    }
  }
  attr {
    key: "output_shapes"
    value {
      list {
        shape {
          dim {
            size: -1
          }
          dim {
            size: 1
          }
        }
        shape {
          dim {
            size: -1
          }
          dim {
            size: 1
          }
        }
        shape {
          dim {
            size: -1
          }
          dim {
            size: 1
          }
        }
        shape {
          dim {
            size: -1
          }
          dim {
            size: 3
          }
        }
      }
    }
  }
  attr {
    key: "output_types"
    value {
      list {
        type: DT_FLOAT
        type: DT_FLOAT
        type: DT_FLOAT
        type: DT_FLOAT
      }
    }
  }
}
node {
  name: "CacheDataset"
  op: "CacheDataset"
  input: "BatchDatasetV2"
  input: "filename"
  device: "/job:worker/task:0"
  attr {
    key: "_class"
    value {
      list {
        s: "loc:@IteratorV2"
      }
    }
  }
  attr {
    key: "_output_shapes"
    value {
      list {
        shape {
        }
      }
    }
  }
  attr {
    key: "output_shapes"
    value {
      list {
        shape {
          dim {
            size: -1
          }
          dim {
            size: 1
          }
        }
        shape {
          dim {
            size: -1
          }
          dim {
            size: 1
          }
        }
        shape {
          dim {
            size: -1
          }
          dim {
            size: 1
          }
        }
        shape {
          dim {
            size: -1
          }
          dim {
            size: 3
          }
        }
      }
    }
  }
  attr {
    key: "output_types"
    value {
      list {
        type: DT_FLOAT
        type: DT_FLOAT
        type: DT_FLOAT
        type: DT_FLOAT
      }
    }
  }
}
node {
  name: "RepeatDataset"
  op: "RepeatDataset"
  input: "CacheDataset"
  input: "count"
  device: "/job:worker/task:0"
  attr {
    key: "_class"
    value {
      list {
        s: "loc:@IteratorV2"
      }
    }
  }
  attr {
    key: "_output_shapes"
    value {
      list {
        shape {
        }
      }
    }
  }
  attr {
    key: "output_shapes"
    value {
      list {
        shape {
          dim {
            size: -1
          }
          dim {
            size: 1
          }
        }
        shape {
          dim {
            size: -1
          }
          dim {
            size: 1
          }
        }
        shape {
          dim {
            size: -1
          }
          dim {
            size: 1
          }
        }
        shape {
          dim {
            size: -1
          }
          dim {
            size: 3
          }
        }
      }
    }
  }
  attr {
    key: "output_types"
    value {
      list {
        type: DT_FLOAT
        type: DT_FLOAT
        type: DT_FLOAT
        type: DT_FLOAT
      }
    }
  }
}
node {
  name: "OptimizeDataset"
  op: "OptimizeDataset"
  input: "RepeatDataset"
  input: "optimizations"
  device: "/job:worker/task:0"
  attr {
    key: "_class"
    value {
      list {
        s: "loc:@IteratorV2"
      }
    }
  }
  attr {
    key: "_output_shapes"
    value {
      list {
        shape {
        }
      }
    }
  }
  attr {
    key: "output_shapes"
    value {
      list {
        shape {
          dim {
            size: -1
          }
          dim {
            size: 1
          }
        }
        shape {
          dim {
            size: -1
          }
          dim {
            size: 1
          }
        }
        shape {
          dim {
            size: -1
          }
          dim {
            size: 1
          }
        }
        shape {
          dim {
            size: -1
          }
          dim {
            size: 3
          }
        }
      }
    }
  }
  attr {
    key: "output_types"
    value {
      list {
        type: DT_FLOAT
        type: DT_FLOAT
        type: DT_FLOAT
        type: DT_FLOAT
      }
    }
  }
}
node {
  name: "ModelDataset"
  op: "ModelDataset"
  input: "OptimizeDataset"
  device: "/job:worker/task:0"
  attr {
    key: "_class"
    value {
      list {
        s: "loc:@IteratorV2"
      }
    }
  }
  attr {
    key: "_output_shapes"
    value {
      list {
        shape {
        }
      }
    }
  }
  attr {
    key: "output_shapes"
    value {
      list {
        shape {
          dim {
            size: -1
          }
          dim {
            size: 1
          }
        }
        shape {
          dim {
            size: -1
          }
          dim {
            size: 1
          }
        }
        shape {
          dim {
            size: -1
          }
          dim {
            size: 1
          }
        }
        shape {
          dim {
            size: -1
          }
          dim {
            size: 3
          }
        }
      }
    }
  }
  attr {
    key: "output_types"
    value {
      list {
        type: DT_FLOAT
        type: DT_FLOAT
        type: DT_FLOAT
        type: DT_FLOAT
      }
    }
  }
}
node {
  name: "MakeIterator"
  op: "MakeIterator"
  input: "ModelDataset"
  input: "IteratorV2"
  device: "/job:worker/task:0"
  attr {
    key: "_class"
    value {
      list {
        s: "loc:@IteratorV2"
      }
    }
  }
}
node {
  name: "IteratorToStringHandle"
  op: "IteratorToStringHandle"
  input: "IteratorV2"
  device: "/job:worker/task:0"
  attr {
    key: "_output_shapes"
    value {
      list {
        shape {
        }
      }
    }
  }
}
node {
  name: "IteratorGetNext"
  op: "IteratorGetNext"
  input: "IteratorV2"
  device: "/job:worker/task:0"
  attr {
    key: "_output_shapes"
    value {
      list {
        shape {
          dim {
            size: -1
          }
          dim {
            size: 1
          }
        }
        shape {
          dim {
            size: -1
          }
          dim {
            size: 1
          }
        }
        shape {
          dim {
            size: -1
          }
          dim {
            size: 1
          }
        }
        shape {
          dim {
            size: -1
          }
          dim {
            size: 3
          }
        }
      }
    }
  }
  attr {
    key: "output_shapes"
    value {
      list {
        shape {
          dim {
            size: -1
          }
          dim {
            size: 1
          }
        }
        shape {
          dim {
            size: -1
          }
          dim {
            size: 1
          }
        }
        shape {
          dim {
            size: -1
          }
          dim {
            size: 1
          }
        }
        shape {
          dim {
            size: -1
          }
          dim {
            size: 3
          }
        }
      }
    }
  }
  attr {
    key: "output_types"
    value {
      list {
        type: DT_FLOAT
        type: DT_FLOAT
        type: DT_FLOAT
        type: DT_FLOAT
      }
    }
  }
}
node {
  name: "oldpi/pi_l1/kernel/Initializer/random_uniform/shape"
  op: "Const"
  attr {
    key: "_class"
    value {
      list {
        s: "loc:@oldpi/pi_l1/kernel"
      }
    }
  }
  attr {
    key: "_output_shapes"
    value {
      list {
        shape {
          dim {
            size: 2
          }
        }
      }
    }
  }
  attr {
    key: "dtype"
    value {
      type: DT_INT32
    }
  }
  attr {
    key: "value"
    value {
      tensor {
        dtype: DT_INT32
        tensor_shape {
          dim {
            size: 2
          }
        }
        tensor_content: "\003\000\000\000\220\001\000\000"
      }
    }
  }
}
node {
  name: "oldpi/pi_l1/kernel/Initializer/random_uniform/min"
  op: "Const"
  attr {
    key: "_class"
    value {
      list {
        s: "loc:@oldpi/pi_l1/kernel"
      }
    }
  }
  attr {
    key: "_output_shapes"
    value {
      list {
        shape {
        }
      }
    }
  }
  attr {
    key: "dtype"
    value {
      type: DT_FLOAT
    }
  }
  attr {
    key: "value"
    value {
      tensor {
        dtype: DT_FLOAT
        tensor_shape {
        }
        float_val: -0.12201777845621109
      }
    }
  }
}
node {
  name: "oldpi/pi_l1/kernel/Initializer/random_uniform/max"
  op: "Const"
  attr {
    key: "_class"
    value {
      list {
        s: "loc:@oldpi/pi_l1/kernel"
      }
    }
  }
  attr {
    key: "_output_shapes"
    value {
      list {
        shape {
        }
      }
    }
  }
  attr {
    key: "dtype"
    value {
      type: DT_FLOAT
    }
  }
  attr {
    key: "value"
    value {
      tensor {
        dtype: DT_FLOAT
        tensor_shape {
        }
        float_val: 0.12201777845621109
      }
    }
  }
}
node {
  name: "oldpi/pi_l1/kernel/Initializer/random_uniform/RandomUniform"
  op: "RandomUniform"
  input: "oldpi/pi_l1/kernel/Initializer/random_uniform/shape"
  attr {
    key: "T"
    value {
      type: DT_INT32
    }
  }
  attr {
    key: "_class"
    value {
      list {
        s: "loc:@oldpi/pi_l1/kernel"
      }
    }
  }
  attr {
    key: "_output_shapes"
    value {
      list {
        shape {
          dim {
            size: 3
          }
          dim {
            size: 400
          }
        }
      }
    }
  }
  attr {
    key: "dtype"
    value {
      type: DT_FLOAT
    }
  }
  attr {
    key: "seed"
    value {
      i: 0
    }
  }
  attr {
    key: "seed2"
    value {
      i: 0
    }
  }
}
node {
  name: "oldpi/pi_l1/kernel/Initializer/random_uniform/sub"
  op: "Sub"
  input: "oldpi/pi_l1/kernel/Initializer/random_uniform/max"
  input: "oldpi/pi_l1/kernel/Initializer/random_uniform/min"
  attr {
    key: "T"
    value {
      type: DT_FLOAT
    }
  }
  attr {
    key: "_class"
    value {
      list {
        s: "loc:@oldpi/pi_l1/kernel"
      }
    }
  }
  attr {
    key: "_output_shapes"
    value {
      list {
        shape {
        }
      }
    }
  }
}
node {
  name: "oldpi/pi_l1/kernel/Initializer/random_uniform/mul"
  op: "Mul"
  input: "oldpi/pi_l1/kernel/Initializer/random_uniform/RandomUniform"
  input: "oldpi/pi_l1/kernel/Initializer/random_uniform/sub"
  attr {
    key: "T"
    value {
      type: DT_FLOAT
    }
  }
  attr {
    key: "_class"
    value {
      list {
        s: "loc:@oldpi/pi_l1/kernel"
      }
    }
  }
  attr {
    key: "_output_shapes"
    value {
      list {
        shape {
          dim {
            size: 3
          }
          dim {
            size: 400
          }
        }
      }
    }
  }
}
node {
  name: "oldpi/pi_l1/kernel/Initializer/random_uniform"
  op: "Add"
  input: "oldpi/pi_l1/kernel/Initializer/random_uniform/mul"
  input: "oldpi/pi_l1/kernel/Initializer/random_uniform/min"
  attr {
    key: "T"
    value {
      type: DT_FLOAT
    }
  }
  attr {
    key: "_class"
    value {
      list {
        s: "loc:@oldpi/pi_l1/kernel"
      }
    }
  }
  attr {
    key: "_output_shapes"
    value {
      list {
        shape {
          dim {
            size: 3
          }
          dim {
            size: 400
          }
        }
      }
    }
  }
}
node {
  name: "oldpi/pi_l1/kernel"
  op: "VariableV2"
  device: "/job:ps/task:0"
  attr {
    key: "_class"
    value {
      list {
        s: "loc:@oldpi/pi_l1/kernel"
      }
    }
  }
  attr {
    key: "_output_shapes"
    value {
      list {
        shape {
          dim {
            size: 3
          }
          dim {
            size: 400
          }
        }
      }
    }
  }
  attr {
    key: "container"
    value {
      s: ""
    }
  }
  attr {
    key: "dtype"
    value {
      type: DT_FLOAT
    }
  }
  attr {
    key: "shape"
    value {
      shape {
        dim {
          size: 3
        }
        dim {
          size: 400
        }
      }
    }
  }
  attr {
    key: "shared_name"
    value {
      s: ""
    }
  }
}
node {
  name: "oldpi/pi_l1/kernel/Assign"
  op: "Assign"
  input: "oldpi/pi_l1/kernel"
  input: "oldpi/pi_l1/kernel/Initializer/random_uniform"
  device: "/job:ps/task:0"
  attr {
    key: "T"
    value {
      type: DT_FLOAT
    }
  }
  attr {
    key: "_class"
    value {
      list {
        s: "loc:@oldpi/pi_l1/kernel"
      }
    }
  }
  attr {
    key: "_output_shapes"
    value {
      list {
        shape {
          dim {
            size: 3
          }
          dim {
            size: 400
          }
        }
      }
    }
  }
  attr {
    key: "use_locking"
    value {
      b: true
    }
  }
  attr {
    key: "validate_shape"
    value {
      b: true
    }
  }
}
node {
  name: "oldpi/pi_l1/kernel/read"
  op: "Identity"
  input: "oldpi/pi_l1/kernel"
  device: "/job:ps/task:0"
  attr {
    key: "T"
    value {
      type: DT_FLOAT
    }
  }
  attr {
    key: "_class"
    value {
      list {
        s: "loc:@oldpi/pi_l1/kernel"
      }
    }
  }
  attr {
    key: "_output_shapes"
    value {
      list {
        shape {
          dim {
            size: 3
          }
          dim {
            size: 400
          }
        }
      }
    }
  }
}
node {
  name: "oldpi/pi_l1/kernel/Regularizer/l2_regularizer/scale"
  op: "Const"
  device: "/job:worker/task:0"
  attr {
    key: "_output_shapes"
    value {
      list {
        shape {
        }
      }
    }
  }
  attr {
    key: "dtype"
    value {
      type: DT_FLOAT
    }
  }
  attr {
    key: "value"
    value {
      tensor {
        dtype: DT_FLOAT
        tensor_shape {
        }
        float_val: 0.0010000000474974513
      }
    }
  }
}
node {
  name: "oldpi/pi_l1/kernel/Regularizer/l2_regularizer/L2Loss"
  op: "L2Loss"
  input: "oldpi/pi_l1/kernel/read"
  device: "/job:worker/task:0"
  attr {
    key: "T"
    value {
      type: DT_FLOAT
    }
  }
  attr {
    key: "_output_shapes"
    value {
      list {
        shape {
        }
      }
    }
  }
}
node {
  name: "oldpi/pi_l1/kernel/Regularizer/l2_regularizer"
  op: "Mul"
  input: "oldpi/pi_l1/kernel/Regularizer/l2_regularizer/scale"
  input: "oldpi/pi_l1/kernel/Regularizer/l2_regularizer/L2Loss"
  device: "/job:worker/task:0"
  attr {
    key: "T"
    value {
      type: DT_FLOAT
    }
  }
  attr {
    key: "_output_shapes"
    value {
      list {
        shape {
        }
      }
    }
  }
}
node {
  name: "oldpi/pi_l1/bias/Initializer/zeros"
  op: "Const"
  attr {
    key: "_class"
    value {
      list {
        s: "loc:@oldpi/pi_l1/bias"
      }
    }
  }
  attr {
    key: "_output_shapes"
    value {
      list {
        shape {
          dim {
            size: 400
          }
        }
      }
    }
  }
  attr {
    key: "dtype"
    value {
      type: DT_FLOAT
    }
  }
  attr {
    key: "value"
    value {
      tensor {
        dtype: DT_FLOAT
        tensor_shape {
          dim {
            size: 400
          }
        }
        float_val: 0.0
      }
    }
  }
}
node {
  name: "oldpi/pi_l1/bias"
  op: "VariableV2"
  device: "/job:ps/task:0"
  attr {
    key: "_class"
    value {
      list {
        s: "loc:@oldpi/pi_l1/bias"
      }
    }
  }
  attr {
    key: "_output_shapes"
    value {
      list {
        shape {
          dim {
            size: 400
          }
        }
      }
    }
  }
  attr {
    key: "container"
    value {
      s: ""
    }
  }
  attr {
    key: "dtype"
    value {
      type: DT_FLOAT
    }
  }
  attr {
    key: "shape"
    value {
      shape {
        dim {
          size: 400
        }
      }
    }
  }
  attr {
    key: "shared_name"
    value {
      s: ""
    }
  }
}
node {
  name: "oldpi/pi_l1/bias/Assign"
  op: "Assign"
  input: "oldpi/pi_l1/bias"
  input: "oldpi/pi_l1/bias/Initializer/zeros"
  device: "/job:ps/task:0"
  attr {
    key: "T"
    value {
      type: DT_FLOAT
    }
  }
  attr {
    key: "_class"
    value {
      list {
        s: "loc:@oldpi/pi_l1/bias"
      }
    }
  }
  attr {
    key: "_output_shapes"
    value {
      list {
        shape {
          dim {
            size: 400
          }
        }
      }
    }
  }
  attr {
    key: "use_locking"
    value {
      b: true
    }
  }
  attr {
    key: "validate_shape"
    value {
      b: true
    }
  }
}
node {
  name: "oldpi/pi_l1/bias/read"
  op: "Identity"
  input: "oldpi/pi_l1/bias"
  device: "/job:ps/task:0"
  attr {
    key: "T"
    value {
      type: DT_FLOAT
    }
  }
  attr {
    key: "_class"
    value {
      list {
        s: "loc:@oldpi/pi_l1/bias"
      }
    }
  }
  attr {
    key: "_output_shapes"
    value {
      list {
        shape {
          dim {
            size: 400
          }
        }
      }
    }
  }
}
node {
  name: "oldpi/pi_l1/MatMul"
  op: "MatMul"
  input: "IteratorGetNext:3"
  input: "oldpi/pi_l1/kernel/read"
  device: "/job:worker/task:0"
  attr {
    key: "T"
    value {
      type: DT_FLOAT
    }
  }
  attr {
    key: "_output_shapes"
    value {
      list {
        shape {
          dim {
            size: -1
          }
          dim {
            size: 400
          }
        }
      }
    }
  }
  attr {
    key: "transpose_a"
    value {
      b: false
    }
  }
  attr {
    key: "transpose_b"
    value {
      b: false
    }
  }
}
node {
  name: "oldpi/pi_l1/BiasAdd"
  op: "BiasAdd"
  input: "oldpi/pi_l1/MatMul"
  input: "oldpi/pi_l1/bias/read"
  device: "/job:worker/task:0"
  attr {
    key: "T"
    value {
      type: DT_FLOAT
    }
  }
  attr {
    key: "_output_shapes"
    value {
      list {
        shape {
          dim {
            size: -1
          }
          dim {
            size: 400
          }
        }
      }
    }
  }
  attr {
    key: "data_format"
    value {
      s: "NHWC"
    }
  }
}
node {
  name: "oldpi/pi_l1/Relu"
  op: "Relu"
  input: "oldpi/pi_l1/BiasAdd"
  device: "/job:worker/task:0"
  attr {
    key: "T"
    value {
      type: DT_FLOAT
    }
  }
  attr {
    key: "_output_shapes"
    value {
      list {
        shape {
          dim {
            size: -1
          }
          dim {
            size: 400
          }
        }
      }
    }
  }
}
node {
  name: "oldpi/pi_l2/kernel/Initializer/random_uniform/shape"
  op: "Const"
  attr {
    key: "_class"
    value {
      list {
        s: "loc:@oldpi/pi_l2/kernel"
      }
    }
  }
  attr {
    key: "_output_shapes"
    value {
      list {
        shape {
          dim {
            size: 2
          }
        }
      }
    }
  }
  attr {
    key: "dtype"
    value {
      type: DT_INT32
    }
  }
  attr {
    key: "value"
    value {
      tensor {
        dtype: DT_INT32
        tensor_shape {
          dim {
            size: 2
          }
        }
        tensor_content: "\220\001\000\000\220\001\000\000"
      }
    }
  }
}
node {
  name: "oldpi/pi_l2/kernel/Initializer/random_uniform/min"
  op: "Const"
  attr {
    key: "_class"
    value {
      list {
        s: "loc:@oldpi/pi_l2/kernel"
      }
    }
  }
  attr {
    key: "_output_shapes"
    value {
      list {
        shape {
        }
      }
    }
  }
  attr {
    key: "dtype"
    value {
      type: DT_FLOAT
    }
  }
  attr {
    key: "value"
    value {
      tensor {
        dtype: DT_FLOAT
        tensor_shape {
        }
        float_val: -0.08660253882408142
      }
    }
  }
}
node {
  name: "oldpi/pi_l2/kernel/Initializer/random_uniform/max"
  op: "Const"
  attr {
    key: "_class"
    value {
      list {
        s: "loc:@oldpi/pi_l2/kernel"
      }
    }
  }
  attr {
    key: "_output_shapes"
    value {
      list {
        shape {
        }
      }
    }
  }
  attr {
    key: "dtype"
    value {
      type: DT_FLOAT
    }
  }
  attr {
    key: "value"
    value {
      tensor {
        dtype: DT_FLOAT
        tensor_shape {
        }
        float_val: 0.08660253882408142
      }
    }
  }
}
node {
  name: "oldpi/pi_l2/kernel/Initializer/random_uniform/RandomUniform"
  op: "RandomUniform"
  input: "oldpi/pi_l2/kernel/Initializer/random_uniform/shape"
  attr {
    key: "T"
    value {
      type: DT_INT32
    }
  }
  attr {
    key: "_class"
    value {
      list {
        s: "loc:@oldpi/pi_l2/kernel"
      }
    }
  }
  attr {
    key: "_output_shapes"
    value {
      list {
        shape {
          dim {
            size: 400
          }
          dim {
            size: 400
          }
        }
      }
    }
  }
  attr {
    key: "dtype"
    value {
      type: DT_FLOAT
    }
  }
  attr {
    key: "seed"
    value {
      i: 0
    }
  }
  attr {
    key: "seed2"
    value {
      i: 0
    }
  }
}
node {
  name: "oldpi/pi_l2/kernel/Initializer/random_uniform/sub"
  op: "Sub"
  input: "oldpi/pi_l2/kernel/Initializer/random_uniform/max"
  input: "oldpi/pi_l2/kernel/Initializer/random_uniform/min"
  attr {
    key: "T"
    value {
      type: DT_FLOAT
    }
  }
  attr {
    key: "_class"
    value {
      list {
        s: "loc:@oldpi/pi_l2/kernel"
      }
    }
  }
  attr {
    key: "_output_shapes"
    value {
      list {
        shape {
        }
      }
    }
  }
}
node {
  name: "oldpi/pi_l2/kernel/Initializer/random_uniform/mul"
  op: "Mul"
  input: "oldpi/pi_l2/kernel/Initializer/random_uniform/RandomUniform"
  input: "oldpi/pi_l2/kernel/Initializer/random_uniform/sub"
  attr {
    key: "T"
    value {
      type: DT_FLOAT
    }
  }
  attr {
    key: "_class"
    value {
      list {
        s: "loc:@oldpi/pi_l2/kernel"
      }
    }
  }
  attr {
    key: "_output_shapes"
    value {
      list {
        shape {
          dim {
            size: 400
          }
          dim {
            size: 400
          }
        }
      }
    }
  }
}
node {
  name: "oldpi/pi_l2/kernel/Initializer/random_uniform"
  op: "Add"
  input: "oldpi/pi_l2/kernel/Initializer/random_uniform/mul"
  input: "oldpi/pi_l2/kernel/Initializer/random_uniform/min"
  attr {
    key: "T"
    value {
      type: DT_FLOAT
    }
  }
  attr {
    key: "_class"
    value {
      list {
        s: "loc:@oldpi/pi_l2/kernel"
      }
    }
  }
  attr {
    key: "_output_shapes"
    value {
      list {
        shape {
          dim {
            size: 400
          }
          dim {
            size: 400
          }
        }
      }
    }
  }
}
node {
  name: "oldpi/pi_l2/kernel"
  op: "VariableV2"
  device: "/job:ps/task:0"
  attr {
    key: "_class"
    value {
      list {
        s: "loc:@oldpi/pi_l2/kernel"
      }
    }
  }
  attr {
    key: "_output_shapes"
    value {
      list {
        shape {
          dim {
            size: 400
          }
          dim {
            size: 400
          }
        }
      }
    }
  }
  attr {
    key: "container"
    value {
      s: ""
    }
  }
  attr {
    key: "dtype"
    value {
      type: DT_FLOAT
    }
  }
  attr {
    key: "shape"
    value {
      shape {
        dim {
          size: 400
        }
        dim {
          size: 400
        }
      }
    }
  }
  attr {
    key: "shared_name"
    value {
      s: ""
    }
  }
}
node {
  name: "oldpi/pi_l2/kernel/Assign"
  op: "Assign"
  input: "oldpi/pi_l2/kernel"
  input: "oldpi/pi_l2/kernel/Initializer/random_uniform"
  device: "/job:ps/task:0"
  attr {
    key: "T"
    value {
      type: DT_FLOAT
    }
  }
  attr {
    key: "_class"
    value {
      list {
        s: "loc:@oldpi/pi_l2/kernel"
      }
    }
  }
  attr {
    key: "_output_shapes"
    value {
      list {
        shape {
          dim {
            size: 400
          }
          dim {
            size: 400
          }
        }
      }
    }
  }
  attr {
    key: "use_locking"
    value {
      b: true
    }
  }
  attr {
    key: "validate_shape"
    value {
      b: true
    }
  }
}
node {
  name: "oldpi/pi_l2/kernel/read"
  op: "Identity"
  input: "oldpi/pi_l2/kernel"
  device: "/job:ps/task:0"
  attr {
    key: "T"
    value {
      type: DT_FLOAT
    }
  }
  attr {
    key: "_class"
    value {
      list {
        s: "loc:@oldpi/pi_l2/kernel"
      }
    }
  }
  attr {
    key: "_output_shapes"
    value {
      list {
        shape {
          dim {
            size: 400
          }
          dim {
            size: 400
          }
        }
      }
    }
  }
}
node {
  name: "oldpi/pi_l2/kernel/Regularizer/l2_regularizer/scale"
  op: "Const"
  device: "/job:worker/task:0"
  attr {
    key: "_output_shapes"
    value {
      list {
        shape {
        }
      }
    }
  }
  attr {
    key: "dtype"
    value {
      type: DT_FLOAT
    }
  }
  attr {
    key: "value"
    value {
      tensor {
        dtype: DT_FLOAT
        tensor_shape {
        }
        float_val: 0.0010000000474974513
      }
    }
  }
}
node {
  name: "oldpi/pi_l2/kernel/Regularizer/l2_regularizer/L2Loss"
  op: "L2Loss"
  input: "oldpi/pi_l2/kernel/read"
  device: "/job:worker/task:0"
  attr {
    key: "T"
    value {
      type: DT_FLOAT
    }
  }
  attr {
    key: "_output_shapes"
    value {
      list {
        shape {
        }
      }
    }
  }
}
node {
  name: "oldpi/pi_l2/kernel/Regularizer/l2_regularizer"
  op: "Mul"
  input: "oldpi/pi_l2/kernel/Regularizer/l2_regularizer/scale"
  input: "oldpi/pi_l2/kernel/Regularizer/l2_regularizer/L2Loss"
  device: "/job:worker/task:0"
  attr {
    key: "T"
    value {
      type: DT_FLOAT
    }
  }
  attr {
    key: "_output_shapes"
    value {
      list {
        shape {
        }
      }
    }
  }
}
node {
  name: "oldpi/pi_l2/bias/Initializer/zeros"
  op: "Const"
  attr {
    key: "_class"
    value {
      list {
        s: "loc:@oldpi/pi_l2/bias"
      }
    }
  }
  attr {
    key: "_output_shapes"
    value {
      list {
        shape {
          dim {
            size: 400
          }
        }
      }
    }
  }
  attr {
    key: "dtype"
    value {
      type: DT_FLOAT
    }
  }
  attr {
    key: "value"
    value {
      tensor {
        dtype: DT_FLOAT
        tensor_shape {
          dim {
            size: 400
          }
        }
        float_val: 0.0
      }
    }
  }
}
node {
  name: "oldpi/pi_l2/bias"
  op: "VariableV2"
  device: "/job:ps/task:0"
  attr {
    key: "_class"
    value {
      list {
        s: "loc:@oldpi/pi_l2/bias"
      }
    }
  }
  attr {
    key: "_output_shapes"
    value {
      list {
        shape {
          dim {
            size: 400
          }
        }
      }
    }
  }
  attr {
    key: "container"
    value {
      s: ""
    }
  }
  attr {
    key: "dtype"
    value {
      type: DT_FLOAT
    }
  }
  attr {
    key: "shape"
    value {
      shape {
        dim {
          size: 400
        }
      }
    }
  }
  attr {
    key: "shared_name"
    value {
      s: ""
    }
  }
}
node {
  name: "oldpi/pi_l2/bias/Assign"
  op: "Assign"
  input: "oldpi/pi_l2/bias"
  input: "oldpi/pi_l2/bias/Initializer/zeros"
  device: "/job:ps/task:0"
  attr {
    key: "T"
    value {
      type: DT_FLOAT
    }
  }
  attr {
    key: "_class"
    value {
      list {
        s: "loc:@oldpi/pi_l2/bias"
      }
    }
  }
  attr {
    key: "_output_shapes"
    value {
      list {
        shape {
          dim {
            size: 400
          }
        }
      }
    }
  }
  attr {
    key: "use_locking"
    value {
      b: true
    }
  }
  attr {
    key: "validate_shape"
    value {
      b: true
    }
  }
}
node {
  name: "oldpi/pi_l2/bias/read"
  op: "Identity"
  input: "oldpi/pi_l2/bias"
  device: "/job:ps/task:0"
  attr {
    key: "T"
    value {
      type: DT_FLOAT
    }
  }
  attr {
    key: "_class"
    value {
      list {
        s: "loc:@oldpi/pi_l2/bias"
      }
    }
  }
  attr {
    key: "_output_shapes"
    value {
      list {
        shape {
          dim {
            size: 400
          }
        }
      }
    }
  }
}
node {
  name: "oldpi/pi_l2/MatMul"
  op: "MatMul"
  input: "oldpi/pi_l1/Relu"
  input: "oldpi/pi_l2/kernel/read"
  device: "/job:worker/task:0"
  attr {
    key: "T"
    value {
      type: DT_FLOAT
    }
  }
  attr {
    key: "_output_shapes"
    value {
      list {
        shape {
          dim {
            size: -1
          }
          dim {
            size: 400
          }
        }
      }
    }
  }
  attr {
    key: "transpose_a"
    value {
      b: false
    }
  }
  attr {
    key: "transpose_b"
    value {
      b: false
    }
  }
}
node {
  name: "oldpi/pi_l2/BiasAdd"
  op: "BiasAdd"
  input: "oldpi/pi_l2/MatMul"
  input: "oldpi/pi_l2/bias/read"
  device: "/job:worker/task:0"
  attr {
    key: "T"
    value {
      type: DT_FLOAT
    }
  }
  attr {
    key: "_output_shapes"
    value {
      list {
        shape {
          dim {
            size: -1
          }
          dim {
            size: 400
          }
        }
      }
    }
  }
  attr {
    key: "data_format"
    value {
      s: "NHWC"
    }
  }
}
node {
  name: "oldpi/pi_l2/Relu"
  op: "Relu"
  input: "oldpi/pi_l2/BiasAdd"
  device: "/job:worker/task:0"
  attr {
    key: "T"
    value {
      type: DT_FLOAT
    }
  }
  attr {
    key: "_output_shapes"
    value {
      list {
        shape {
          dim {
            size: -1
          }
          dim {
            size: 400
          }
        }
      }
    }
  }
}
node {
  name: "oldpi/pi_mu/kernel/Initializer/random_uniform/shape"
  op: "Const"
  attr {
    key: "_class"
    value {
      list {
        s: "loc:@oldpi/pi_mu/kernel"
      }
    }
  }
  attr {
    key: "_output_shapes"
    value {
      list {
        shape {
          dim {
            size: 2
          }
        }
      }
    }
  }
  attr {
    key: "dtype"
    value {
      type: DT_INT32
    }
  }
  attr {
    key: "value"
    value {
      tensor {
        dtype: DT_INT32
        tensor_shape {
          dim {
            size: 2
          }
        }
        tensor_content: "\220\001\000\000\001\000\000\000"
      }
    }
  }
}
node {
  name: "oldpi/pi_mu/kernel/Initializer/random_uniform/min"
  op: "Const"
  attr {
    key: "_class"
    value {
      list {
        s: "loc:@oldpi/pi_mu/kernel"
      }
    }
  }
  attr {
    key: "_output_shapes"
    value {
      list {
        shape {
        }
      }
    }
  }
  attr {
    key: "dtype"
    value {
      type: DT_FLOAT
    }
  }
  attr {
    key: "value"
    value {
      tensor {
        dtype: DT_FLOAT
        tensor_shape {
        }
        float_val: -0.12232168018817902
      }
    }
  }
}
node {
  name: "oldpi/pi_mu/kernel/Initializer/random_uniform/max"
  op: "Const"
  attr {
    key: "_class"
    value {
      list {
        s: "loc:@oldpi/pi_mu/kernel"
      }
    }
  }
  attr {
    key: "_output_shapes"
    value {
      list {
        shape {
        }
      }
    }
  }
  attr {
    key: "dtype"
    value {
      type: DT_FLOAT
    }
  }
  attr {
    key: "value"
    value {
      tensor {
        dtype: DT_FLOAT
        tensor_shape {
        }
        float_val: 0.12232168018817902
      }
    }
  }
}
node {
  name: "oldpi/pi_mu/kernel/Initializer/random_uniform/RandomUniform"
  op: "RandomUniform"
  input: "oldpi/pi_mu/kernel/Initializer/random_uniform/shape"
  attr {
    key: "T"
    value {
      type: DT_INT32
    }
  }
  attr {
    key: "_class"
    value {
      list {
        s: "loc:@oldpi/pi_mu/kernel"
      }
    }
  }
  attr {
    key: "_output_shapes"
    value {
      list {
        shape {
          dim {
            size: 400
          }
          dim {
            size: 1
          }
        }
      }
    }
  }
  attr {
    key: "dtype"
    value {
      type: DT_FLOAT
    }
  }
  attr {
    key: "seed"
    value {
      i: 0
    }
  }
  attr {
    key: "seed2"
    value {
      i: 0
    }
  }
}
node {
  name: "oldpi/pi_mu/kernel/Initializer/random_uniform/sub"
  op: "Sub"
  input: "oldpi/pi_mu/kernel/Initializer/random_uniform/max"
  input: "oldpi/pi_mu/kernel/Initializer/random_uniform/min"
  attr {
    key: "T"
    value {
      type: DT_FLOAT
    }
  }
  attr {
    key: "_class"
    value {
      list {
        s: "loc:@oldpi/pi_mu/kernel"
      }
    }
  }
  attr {
    key: "_output_shapes"
    value {
      list {
        shape {
        }
      }
    }
  }
}
node {
  name: "oldpi/pi_mu/kernel/Initializer/random_uniform/mul"
  op: "Mul"
  input: "oldpi/pi_mu/kernel/Initializer/random_uniform/RandomUniform"
  input: "oldpi/pi_mu/kernel/Initializer/random_uniform/sub"
  attr {
    key: "T"
    value {
      type: DT_FLOAT
    }
  }
  attr {
    key: "_class"
    value {
      list {
        s: "loc:@oldpi/pi_mu/kernel"
      }
    }
  }
  attr {
    key: "_output_shapes"
    value {
      list {
        shape {
          dim {
            size: 400
          }
          dim {
            size: 1
          }
        }
      }
    }
  }
}
node {
  name: "oldpi/pi_mu/kernel/Initializer/random_uniform"
  op: "Add"
  input: "oldpi/pi_mu/kernel/Initializer/random_uniform/mul"
  input: "oldpi/pi_mu/kernel/Initializer/random_uniform/min"
  attr {
    key: "T"
    value {
      type: DT_FLOAT
    }
  }
  attr {
    key: "_class"
    value {
      list {
        s: "loc:@oldpi/pi_mu/kernel"
      }
    }
  }
  attr {
    key: "_output_shapes"
    value {
      list {
        shape {
          dim {
            size: 400
          }
          dim {
            size: 1
          }
        }
      }
    }
  }
}
node {
  name: "oldpi/pi_mu/kernel"
  op: "VariableV2"
  device: "/job:ps/task:0"
  attr {
    key: "_class"
    value {
      list {
        s: "loc:@oldpi/pi_mu/kernel"
      }
    }
  }
  attr {
    key: "_output_shapes"
    value {
      list {
        shape {
          dim {
            size: 400
          }
          dim {
            size: 1
          }
        }
      }
    }
  }
  attr {
    key: "container"
    value {
      s: ""
    }
  }
  attr {
    key: "dtype"
    value {
      type: DT_FLOAT
    }
  }
  attr {
    key: "shape"
    value {
      shape {
        dim {
          size: 400
        }
        dim {
          size: 1
        }
      }
    }
  }
  attr {
    key: "shared_name"
    value {
      s: ""
    }
  }
}
node {
  name: "oldpi/pi_mu/kernel/Assign"
  op: "Assign"
  input: "oldpi/pi_mu/kernel"
  input: "oldpi/pi_mu/kernel/Initializer/random_uniform"
  device: "/job:ps/task:0"
  attr {
    key: "T"
    value {
      type: DT_FLOAT
    }
  }
  attr {
    key: "_class"
    value {
      list {
        s: "loc:@oldpi/pi_mu/kernel"
      }
    }
  }
  attr {
    key: "_output_shapes"
    value {
      list {
        shape {
          dim {
            size: 400
          }
          dim {
            size: 1
          }
        }
      }
    }
  }
  attr {
    key: "use_locking"
    value {
      b: true
    }
  }
  attr {
    key: "validate_shape"
    value {
      b: true
    }
  }
}
node {
  name: "oldpi/pi_mu/kernel/read"
  op: "Identity"
  input: "oldpi/pi_mu/kernel"
  device: "/job:ps/task:0"
  attr {
    key: "T"
    value {
      type: DT_FLOAT
    }
  }
  attr {
    key: "_class"
    value {
      list {
        s: "loc:@oldpi/pi_mu/kernel"
      }
    }
  }
  attr {
    key: "_output_shapes"
    value {
      list {
        shape {
          dim {
            size: 400
          }
          dim {
            size: 1
          }
        }
      }
    }
  }
}
node {
  name: "oldpi/pi_mu/kernel/Regularizer/l2_regularizer/scale"
  op: "Const"
  device: "/job:worker/task:0"
  attr {
    key: "_output_shapes"
    value {
      list {
        shape {
        }
      }
    }
  }
  attr {
    key: "dtype"
    value {
      type: DT_FLOAT
    }
  }
  attr {
    key: "value"
    value {
      tensor {
        dtype: DT_FLOAT
        tensor_shape {
        }
        float_val: 0.0010000000474974513
      }
    }
  }
}
node {
  name: "oldpi/pi_mu/kernel/Regularizer/l2_regularizer/L2Loss"
  op: "L2Loss"
  input: "oldpi/pi_mu/kernel/read"
  device: "/job:worker/task:0"
  attr {
    key: "T"
    value {
      type: DT_FLOAT
    }
  }
  attr {
    key: "_output_shapes"
    value {
      list {
        shape {
        }
      }
    }
  }
}
node {
  name: "oldpi/pi_mu/kernel/Regularizer/l2_regularizer"
  op: "Mul"
  input: "oldpi/pi_mu/kernel/Regularizer/l2_regularizer/scale"
  input: "oldpi/pi_mu/kernel/Regularizer/l2_regularizer/L2Loss"
  device: "/job:worker/task:0"
  attr {
    key: "T"
    value {
      type: DT_FLOAT
    }
  }
  attr {
    key: "_output_shapes"
    value {
      list {
        shape {
        }
      }
    }
  }
}
node {
  name: "oldpi/pi_mu/bias/Initializer/zeros"
  op: "Const"
  attr {
    key: "_class"
    value {
      list {
        s: "loc:@oldpi/pi_mu/bias"
      }
    }
  }
  attr {
    key: "_output_shapes"
    value {
      list {
        shape {
          dim {
            size: 1
          }
        }
      }
    }
  }
  attr {
    key: "dtype"
    value {
      type: DT_FLOAT
    }
  }
  attr {
    key: "value"
    value {
      tensor {
        dtype: DT_FLOAT
        tensor_shape {
          dim {
            size: 1
          }
        }
        float_val: 0.0
      }
    }
  }
}
node {
  name: "oldpi/pi_mu/bias"
  op: "VariableV2"
  device: "/job:ps/task:0"
  attr {
    key: "_class"
    value {
      list {
        s: "loc:@oldpi/pi_mu/bias"
      }
    }
  }
  attr {
    key: "_output_shapes"
    value {
      list {
        shape {
          dim {
            size: 1
          }
        }
      }
    }
  }
  attr {
    key: "container"
    value {
      s: ""
    }
  }
  attr {
    key: "dtype"
    value {
      type: DT_FLOAT
    }
  }
  attr {
    key: "shape"
    value {
      shape {
        dim {
          size: 1
        }
      }
    }
  }
  attr {
    key: "shared_name"
    value {
      s: ""
    }
  }
}
node {
  name: "oldpi/pi_mu/bias/Assign"
  op: "Assign"
  input: "oldpi/pi_mu/bias"
  input: "oldpi/pi_mu/bias/Initializer/zeros"
  device: "/job:ps/task:0"
  attr {
    key: "T"
    value {
      type: DT_FLOAT
    }
  }
  attr {
    key: "_class"
    value {
      list {
        s: "loc:@oldpi/pi_mu/bias"
      }
    }
  }
  attr {
    key: "_output_shapes"
    value {
      list {
        shape {
          dim {
            size: 1
          }
        }
      }
    }
  }
  attr {
    key: "use_locking"
    value {
      b: true
    }
  }
  attr {
    key: "validate_shape"
    value {
      b: true
    }
  }
}
node {
  name: "oldpi/pi_mu/bias/read"
  op: "Identity"
  input: "oldpi/pi_mu/bias"
  device: "/job:ps/task:0"
  attr {
    key: "T"
    value {
      type: DT_FLOAT
    }
  }
  attr {
    key: "_class"
    value {
      list {
        s: "loc:@oldpi/pi_mu/bias"
      }
    }
  }
  attr {
    key: "_output_shapes"
    value {
      list {
        shape {
          dim {
            size: 1
          }
        }
      }
    }
  }
}
node {
  name: "oldpi/pi_mu/MatMul"
  op: "MatMul"
  input: "oldpi/pi_l2/Relu"
  input: "oldpi/pi_mu/kernel/read"
  device: "/job:worker/task:0"
  attr {
    key: "T"
    value {
      type: DT_FLOAT
    }
  }
  attr {
    key: "_output_shapes"
    value {
      list {
        shape {
          dim {
            size: -1
          }
          dim {
            size: 1
          }
        }
      }
    }
  }
  attr {
    key: "transpose_a"
    value {
      b: false
    }
  }
  attr {
    key: "transpose_b"
    value {
      b: false
    }
  }
}
node {
  name: "oldpi/pi_mu/BiasAdd"
  op: "BiasAdd"
  input: "oldpi/pi_mu/MatMul"
  input: "oldpi/pi_mu/bias/read"
  device: "/job:worker/task:0"
  attr {
    key: "T"
    value {
      type: DT_FLOAT
    }
  }
  attr {
    key: "_output_shapes"
    value {
      list {
        shape {
          dim {
            size: -1
          }
          dim {
            size: 1
          }
        }
      }
    }
  }
  attr {
    key: "data_format"
    value {
      s: "NHWC"
    }
  }
}
node {
  name: "oldpi/pi_mu/Tanh"
  op: "Tanh"
  input: "oldpi/pi_mu/BiasAdd"
  device: "/job:worker/task:0"
  attr {
    key: "T"
    value {
      type: DT_FLOAT
    }
  }
  attr {
    key: "_output_shapes"
    value {
      list {
        shape {
          dim {
            size: -1
          }
          dim {
            size: 1
          }
        }
      }
    }
  }
}
node {
  name: "oldpi/pi_sigma/Initializer/zeros"
  op: "Const"
  attr {
    key: "_class"
    value {
      list {
        s: "loc:@oldpi/pi_sigma"
      }
    }
  }
  attr {
    key: "_output_shapes"
    value {
      list {
        shape {
          dim {
            size: 1
          }
        }
      }
    }
  }
  attr {
    key: "dtype"
    value {
      type: DT_FLOAT
    }
  }
  attr {
    key: "value"
    value {
      tensor {
        dtype: DT_FLOAT
        tensor_shape {
          dim {
            size: 1
          }
        }
        float_val: 0.0
      }
    }
  }
}
node {
  name: "oldpi/pi_sigma"
  op: "VariableV2"
  device: "/job:ps/task:0"
  attr {
    key: "_class"
    value {
      list {
        s: "loc:@oldpi/pi_sigma"
      }
    }
  }
  attr {
    key: "_output_shapes"
    value {
      list {
        shape {
          dim {
            size: 1
          }
        }
      }
    }
  }
  attr {
    key: "container"
    value {
      s: ""
    }
  }
  attr {
    key: "dtype"
    value {
      type: DT_FLOAT
    }
  }
  attr {
    key: "shape"
    value {
      shape {
        dim {
          size: 1
        }
      }
    }
  }
  attr {
    key: "shared_name"
    value {
      s: ""
    }
  }
}
node {
  name: "oldpi/pi_sigma/Assign"
  op: "Assign"
  input: "oldpi/pi_sigma"
  input: "oldpi/pi_sigma/Initializer/zeros"
  device: "/job:ps/task:0"
  attr {
    key: "T"
    value {
      type: DT_FLOAT
    }
  }
  attr {
    key: "_class"
    value {
      list {
        s: "loc:@oldpi/pi_sigma"
      }
    }
  }
  attr {
    key: "_output_shapes"
    value {
      list {
        shape {
          dim {
            size: 1
          }
        }
      }
    }
  }
  attr {
    key: "use_locking"
    value {
      b: true
    }
  }
  attr {
    key: "validate_shape"
    value {
      b: true
    }
  }
}
node {
  name: "oldpi/pi_sigma/read"
  op: "Identity"
  input: "oldpi/pi_sigma"
  device: "/job:ps/task:0"
  attr {
    key: "T"
    value {
      type: DT_FLOAT
    }
  }
  attr {
    key: "_class"
    value {
      list {
        s: "loc:@oldpi/pi_sigma"
      }
    }
  }
  attr {
    key: "_output_shapes"
    value {
      list {
        shape {
          dim {
            size: 1
          }
        }
      }
    }
  }
}
node {
  name: "oldpi/mul/y"
  op: "Const"
  device: "/job:worker/task:0"
  attr {
    key: "_output_shapes"
    value {
      list {
        shape {
          dim {
            size: 1
          }
        }
      }
    }
  }
  attr {
    key: "dtype"
    value {
      type: DT_FLOAT
    }
  }
  attr {
    key: "value"
    value {
      tensor {
        dtype: DT_FLOAT
        tensor_shape {
          dim {
            size: 1
          }
        }
        float_val: 2.0
      }
    }
  }
}
node {
  name: "oldpi/mul"
  op: "Mul"
  input: "oldpi/pi_mu/Tanh"
  input: "oldpi/mul/y"
  device: "/job:worker/task:0"
  attr {
    key: "T"
    value {
      type: DT_FLOAT
    }
  }
  attr {
    key: "_output_shapes"
    value {
      list {
        shape {
          dim {
            size: -1
          }
          dim {
            size: 1
          }
        }
      }
    }
  }
}
node {
  name: "oldpi/Exp"
  op: "Exp"
  input: "oldpi/pi_sigma/read"
  device: "/job:worker/task:0"
  attr {
    key: "T"
    value {
      type: DT_FLOAT
    }
  }
  attr {
    key: "_output_shapes"
    value {
      list {
        shape {
          dim {
            size: 1
          }
        }
      }
    }
  }
}
node {
  name: "oldpi/Maximum/y"
  op: "Const"
  device: "/job:worker/task:0"
  attr {
    key: "_output_shapes"
    value {
      list {
        shape {
        }
      }
    }
  }
  attr {
    key: "dtype"
    value {
      type: DT_FLOAT
    }
  }
  attr {
    key: "value"
    value {
      tensor {
        dtype: DT_FLOAT
        tensor_shape {
        }
        float_val: 0.0
      }
    }
  }
}
node {
  name: "oldpi/Maximum"
  op: "Maximum"
  input: "oldpi/Exp"
  input: "oldpi/Maximum/y"
  device: "/job:worker/task:0"
  attr {
    key: "T"
    value {
      type: DT_FLOAT
    }
  }
  attr {
    key: "_output_shapes"
    value {
      list {
        shape {
          dim {
            size: 1
          }
        }
      }
    }
  }
}
node {
  name: "oldpi/Normal/loc"
  op: "Identity"
  input: "oldpi/mul"
  device: "/job:worker/task:0"
  attr {
    key: "T"
    value {
      type: DT_FLOAT
    }
  }
  attr {
    key: "_output_shapes"
    value {
      list {
        shape {
          dim {
            size: -1
          }
          dim {
            size: 1
          }
        }
      }
    }
  }
}
node {
  name: "oldpi/Normal/scale"
  op: "Identity"
  input: "oldpi/Maximum"
  device: "/job:worker/task:0"
  attr {
    key: "T"
    value {
      type: DT_FLOAT
    }
  }
  attr {
    key: "_output_shapes"
    value {
      list {
        shape {
          dim {
            size: 1
          }
        }
      }
    }
  }
}
node {
  name: "pi/pi_l1/kernel/Initializer/random_uniform/shape"
  op: "Const"
  attr {
    key: "_class"
    value {
      list {
        s: "loc:@pi/pi_l1/kernel"
      }
    }
  }
  attr {
    key: "_output_shapes"
    value {
      list {
        shape {
          dim {
            size: 2
          }
        }
      }
    }
  }
  attr {
    key: "dtype"
    value {
      type: DT_INT32
    }
  }
  attr {
    key: "value"
    value {
      tensor {
        dtype: DT_INT32
        tensor_shape {
          dim {
            size: 2
          }
        }
        tensor_content: "\003\000\000\000\220\001\000\000"
      }
    }
  }
}
node {
  name: "pi/pi_l1/kernel/Initializer/random_uniform/min"
  op: "Const"
  attr {
    key: "_class"
    value {
      list {
        s: "loc:@pi/pi_l1/kernel"
      }
    }
  }
  attr {
    key: "_output_shapes"
    value {
      list {
        shape {
        }
      }
    }
  }
  attr {
    key: "dtype"
    value {
      type: DT_FLOAT
    }
  }
  attr {
    key: "value"
    value {
      tensor {
        dtype: DT_FLOAT
        tensor_shape {
        }
        float_val: -0.12201777845621109
      }
    }
  }
}
node {
  name: "pi/pi_l1/kernel/Initializer/random_uniform/max"
  op: "Const"
  attr {
    key: "_class"
    value {
      list {
        s: "loc:@pi/pi_l1/kernel"
      }
    }
  }
  attr {
    key: "_output_shapes"
    value {
      list {
        shape {
        }
      }
    }
  }
  attr {
    key: "dtype"
    value {
      type: DT_FLOAT
    }
  }
  attr {
    key: "value"
    value {
      tensor {
        dtype: DT_FLOAT
        tensor_shape {
        }
        float_val: 0.12201777845621109
      }
    }
  }
}
node {
  name: "pi/pi_l1/kernel/Initializer/random_uniform/RandomUniform"
  op: "RandomUniform"
  input: "pi/pi_l1/kernel/Initializer/random_uniform/shape"
  attr {
    key: "T"
    value {
      type: DT_INT32
    }
  }
  attr {
    key: "_class"
    value {
      list {
        s: "loc:@pi/pi_l1/kernel"
      }
    }
  }
  attr {
    key: "_output_shapes"
    value {
      list {
        shape {
          dim {
            size: 3
          }
          dim {
            size: 400
          }
        }
      }
    }
  }
  attr {
    key: "dtype"
    value {
      type: DT_FLOAT
    }
  }
  attr {
    key: "seed"
    value {
      i: 0
    }
  }
  attr {
    key: "seed2"
    value {
      i: 0
    }
  }
}
node {
  name: "pi/pi_l1/kernel/Initializer/random_uniform/sub"
  op: "Sub"
  input: "pi/pi_l1/kernel/Initializer/random_uniform/max"
  input: "pi/pi_l1/kernel/Initializer/random_uniform/min"
  attr {
    key: "T"
    value {
      type: DT_FLOAT
    }
  }
  attr {
    key: "_class"
    value {
      list {
        s: "loc:@pi/pi_l1/kernel"
      }
    }
  }
  attr {
    key: "_output_shapes"
    value {
      list {
        shape {
        }
      }
    }
  }
}
node {
  name: "pi/pi_l1/kernel/Initializer/random_uniform/mul"
  op: "Mul"
  input: "pi/pi_l1/kernel/Initializer/random_uniform/RandomUniform"
  input: "pi/pi_l1/kernel/Initializer/random_uniform/sub"
  attr {
    key: "T"
    value {
      type: DT_FLOAT
    }
  }
  attr {
    key: "_class"
    value {
      list {
        s: "loc:@pi/pi_l1/kernel"
      }
    }
  }
  attr {
    key: "_output_shapes"
    value {
      list {
        shape {
          dim {
            size: 3
          }
          dim {
            size: 400
          }
        }
      }
    }
  }
}
node {
  name: "pi/pi_l1/kernel/Initializer/random_uniform"
  op: "Add"
  input: "pi/pi_l1/kernel/Initializer/random_uniform/mul"
  input: "pi/pi_l1/kernel/Initializer/random_uniform/min"
  attr {
    key: "T"
    value {
      type: DT_FLOAT
    }
  }
  attr {
    key: "_class"
    value {
      list {
        s: "loc:@pi/pi_l1/kernel"
      }
    }
  }
  attr {
    key: "_output_shapes"
    value {
      list {
        shape {
          dim {
            size: 3
          }
          dim {
            size: 400
          }
        }
      }
    }
  }
}
node {
  name: "pi/pi_l1/kernel"
  op: "VariableV2"
  device: "/job:ps/task:0"
  attr {
    key: "_class"
    value {
      list {
        s: "loc:@pi/pi_l1/kernel"
      }
    }
  }
  attr {
    key: "_output_shapes"
    value {
      list {
        shape {
          dim {
            size: 3
          }
          dim {
            size: 400
          }
        }
      }
    }
  }
  attr {
    key: "container"
    value {
      s: ""
    }
  }
  attr {
    key: "dtype"
    value {
      type: DT_FLOAT
    }
  }
  attr {
    key: "shape"
    value {
      shape {
        dim {
          size: 3
        }
        dim {
          size: 400
        }
      }
    }
  }
  attr {
    key: "shared_name"
    value {
      s: ""
    }
  }
}
node {
  name: "pi/pi_l1/kernel/Assign"
  op: "Assign"
  input: "pi/pi_l1/kernel"
  input: "pi/pi_l1/kernel/Initializer/random_uniform"
  device: "/job:ps/task:0"
  attr {
    key: "T"
    value {
      type: DT_FLOAT
    }
  }
  attr {
    key: "_class"
    value {
      list {
        s: "loc:@pi/pi_l1/kernel"
      }
    }
  }
  attr {
    key: "_output_shapes"
    value {
      list {
        shape {
          dim {
            size: 3
          }
          dim {
            size: 400
          }
        }
      }
    }
  }
  attr {
    key: "use_locking"
    value {
      b: true
    }
  }
  attr {
    key: "validate_shape"
    value {
      b: true
    }
  }
}
node {
  name: "pi/pi_l1/kernel/read"
  op: "Identity"
  input: "pi/pi_l1/kernel"
  device: "/job:ps/task:0"
  attr {
    key: "T"
    value {
      type: DT_FLOAT
    }
  }
  attr {
    key: "_class"
    value {
      list {
        s: "loc:@pi/pi_l1/kernel"
      }
    }
  }
  attr {
    key: "_output_shapes"
    value {
      list {
        shape {
          dim {
            size: 3
          }
          dim {
            size: 400
          }
        }
      }
    }
  }
}
node {
  name: "pi/pi_l1/kernel/Regularizer/l2_regularizer/scale"
  op: "Const"
  device: "/job:worker/task:0"
  attr {
    key: "_output_shapes"
    value {
      list {
        shape {
        }
      }
    }
  }
  attr {
    key: "dtype"
    value {
      type: DT_FLOAT
    }
  }
  attr {
    key: "value"
    value {
      tensor {
        dtype: DT_FLOAT
        tensor_shape {
        }
        float_val: 0.0010000000474974513
      }
    }
  }
}
node {
  name: "pi/pi_l1/kernel/Regularizer/l2_regularizer/L2Loss"
  op: "L2Loss"
  input: "pi/pi_l1/kernel/read"
  device: "/job:worker/task:0"
  attr {
    key: "T"
    value {
      type: DT_FLOAT
    }
  }
  attr {
    key: "_output_shapes"
    value {
      list {
        shape {
        }
      }
    }
  }
}
node {
  name: "pi/pi_l1/kernel/Regularizer/l2_regularizer"
  op: "Mul"
  input: "pi/pi_l1/kernel/Regularizer/l2_regularizer/scale"
  input: "pi/pi_l1/kernel/Regularizer/l2_regularizer/L2Loss"
  device: "/job:worker/task:0"
  attr {
    key: "T"
    value {
      type: DT_FLOAT
    }
  }
  attr {
    key: "_output_shapes"
    value {
      list {
        shape {
        }
      }
    }
  }
}
node {
  name: "pi/pi_l1/bias/Initializer/zeros"
  op: "Const"
  attr {
    key: "_class"
    value {
      list {
        s: "loc:@pi/pi_l1/bias"
      }
    }
  }
  attr {
    key: "_output_shapes"
    value {
      list {
        shape {
          dim {
            size: 400
          }
        }
      }
    }
  }
  attr {
    key: "dtype"
    value {
      type: DT_FLOAT
    }
  }
  attr {
    key: "value"
    value {
      tensor {
        dtype: DT_FLOAT
        tensor_shape {
          dim {
            size: 400
          }
        }
        float_val: 0.0
      }
    }
  }
}
node {
  name: "pi/pi_l1/bias"
  op: "VariableV2"
  device: "/job:ps/task:0"
  attr {
    key: "_class"
    value {
      list {
        s: "loc:@pi/pi_l1/bias"
      }
    }
  }
  attr {
    key: "_output_shapes"
    value {
      list {
        shape {
          dim {
            size: 400
          }
        }
      }
    }
  }
  attr {
    key: "container"
    value {
      s: ""
    }
  }
  attr {
    key: "dtype"
    value {
      type: DT_FLOAT
    }
  }
  attr {
    key: "shape"
    value {
      shape {
        dim {
          size: 400
        }
      }
    }
  }
  attr {
    key: "shared_name"
    value {
      s: ""
    }
  }
}
node {
  name: "pi/pi_l1/bias/Assign"
  op: "Assign"
  input: "pi/pi_l1/bias"
  input: "pi/pi_l1/bias/Initializer/zeros"
  device: "/job:ps/task:0"
  attr {
    key: "T"
    value {
      type: DT_FLOAT
    }
  }
  attr {
    key: "_class"
    value {
      list {
        s: "loc:@pi/pi_l1/bias"
      }
    }
  }
  attr {
    key: "_output_shapes"
    value {
      list {
        shape {
          dim {
            size: 400
          }
        }
      }
    }
  }
  attr {
    key: "use_locking"
    value {
      b: true
    }
  }
  attr {
    key: "validate_shape"
    value {
      b: true
    }
  }
}
node {
  name: "pi/pi_l1/bias/read"
  op: "Identity"
  input: "pi/pi_l1/bias"
  device: "/job:ps/task:0"
  attr {
    key: "T"
    value {
      type: DT_FLOAT
    }
  }
  attr {
    key: "_class"
    value {
      list {
        s: "loc:@pi/pi_l1/bias"
      }
    }
  }
  attr {
    key: "_output_shapes"
    value {
      list {
        shape {
          dim {
            size: 400
          }
        }
      }
    }
  }
}
node {
  name: "pi/pi_l1/MatMul"
  op: "MatMul"
  input: "IteratorGetNext:3"
  input: "pi/pi_l1/kernel/read"
  device: "/job:worker/task:0"
  attr {
    key: "T"
    value {
      type: DT_FLOAT
    }
  }
  attr {
    key: "_output_shapes"
    value {
      list {
        shape {
          dim {
            size: -1
          }
          dim {
            size: 400
          }
        }
      }
    }
  }
  attr {
    key: "transpose_a"
    value {
      b: false
    }
  }
  attr {
    key: "transpose_b"
    value {
      b: false
    }
  }
}
node {
  name: "pi/pi_l1/BiasAdd"
  op: "BiasAdd"
  input: "pi/pi_l1/MatMul"
  input: "pi/pi_l1/bias/read"
  device: "/job:worker/task:0"
  attr {
    key: "T"
    value {
      type: DT_FLOAT
    }
  }
  attr {
    key: "_output_shapes"
    value {
      list {
        shape {
          dim {
            size: -1
          }
          dim {
            size: 400
          }
        }
      }
    }
  }
  attr {
    key: "data_format"
    value {
      s: "NHWC"
    }
  }
}
node {
  name: "pi/pi_l1/Relu"
  op: "Relu"
  input: "pi/pi_l1/BiasAdd"
  device: "/job:worker/task:0"
  attr {
    key: "T"
    value {
      type: DT_FLOAT
    }
  }
  attr {
    key: "_output_shapes"
    value {
      list {
        shape {
          dim {
            size: -1
          }
          dim {
            size: 400
          }
        }
      }
    }
  }
}
node {
  name: "pi/pi_l2/kernel/Initializer/random_uniform/shape"
  op: "Const"
  attr {
    key: "_class"
    value {
      list {
        s: "loc:@pi/pi_l2/kernel"
      }
    }
  }
  attr {
    key: "_output_shapes"
    value {
      list {
        shape {
          dim {
            size: 2
          }
        }
      }
    }
  }
  attr {
    key: "dtype"
    value {
      type: DT_INT32
    }
  }
  attr {
    key: "value"
    value {
      tensor {
        dtype: DT_INT32
        tensor_shape {
          dim {
            size: 2
          }
        }
        tensor_content: "\220\001\000\000\220\001\000\000"
      }
    }
  }
}
node {
  name: "pi/pi_l2/kernel/Initializer/random_uniform/min"
  op: "Const"
  attr {
    key: "_class"
    value {
      list {
        s: "loc:@pi/pi_l2/kernel"
      }
    }
  }
  attr {
    key: "_output_shapes"
    value {
      list {
        shape {
        }
      }
    }
  }
  attr {
    key: "dtype"
    value {
      type: DT_FLOAT
    }
  }
  attr {
    key: "value"
    value {
      tensor {
        dtype: DT_FLOAT
        tensor_shape {
        }
        float_val: -0.08660253882408142
      }
    }
  }
}
node {
  name: "pi/pi_l2/kernel/Initializer/random_uniform/max"
  op: "Const"
  attr {
    key: "_class"
    value {
      list {
        s: "loc:@pi/pi_l2/kernel"
      }
    }
  }
  attr {
    key: "_output_shapes"
    value {
      list {
        shape {
        }
      }
    }
  }
  attr {
    key: "dtype"
    value {
      type: DT_FLOAT
    }
  }
  attr {
    key: "value"
    value {
      tensor {
        dtype: DT_FLOAT
        tensor_shape {
        }
        float_val: 0.08660253882408142
      }
    }
  }
}
node {
  name: "pi/pi_l2/kernel/Initializer/random_uniform/RandomUniform"
  op: "RandomUniform"
  input: "pi/pi_l2/kernel/Initializer/random_uniform/shape"
  attr {
    key: "T"
    value {
      type: DT_INT32
    }
  }
  attr {
    key: "_class"
    value {
      list {
        s: "loc:@pi/pi_l2/kernel"
      }
    }
  }
  attr {
    key: "_output_shapes"
    value {
      list {
        shape {
          dim {
            size: 400
          }
          dim {
            size: 400
          }
        }
      }
    }
  }
  attr {
    key: "dtype"
    value {
      type: DT_FLOAT
    }
  }
  attr {
    key: "seed"
    value {
      i: 0
    }
  }
  attr {
    key: "seed2"
    value {
      i: 0
    }
  }
}
node {
  name: "pi/pi_l2/kernel/Initializer/random_uniform/sub"
  op: "Sub"
  input: "pi/pi_l2/kernel/Initializer/random_uniform/max"
  input: "pi/pi_l2/kernel/Initializer/random_uniform/min"
  attr {
    key: "T"
    value {
      type: DT_FLOAT
    }
  }
  attr {
    key: "_class"
    value {
      list {
        s: "loc:@pi/pi_l2/kernel"
      }
    }
  }
  attr {
    key: "_output_shapes"
    value {
      list {
        shape {
        }
      }
    }
  }
}
node {
  name: "pi/pi_l2/kernel/Initializer/random_uniform/mul"
  op: "Mul"
  input: "pi/pi_l2/kernel/Initializer/random_uniform/RandomUniform"
  input: "pi/pi_l2/kernel/Initializer/random_uniform/sub"
  attr {
    key: "T"
    value {
      type: DT_FLOAT
    }
  }
  attr {
    key: "_class"
    value {
      list {
        s: "loc:@pi/pi_l2/kernel"
      }
    }
  }
  attr {
    key: "_output_shapes"
    value {
      list {
        shape {
          dim {
            size: 400
          }
          dim {
            size: 400
          }
        }
      }
    }
  }
}
node {
  name: "pi/pi_l2/kernel/Initializer/random_uniform"
  op: "Add"
  input: "pi/pi_l2/kernel/Initializer/random_uniform/mul"
  input: "pi/pi_l2/kernel/Initializer/random_uniform/min"
  attr {
    key: "T"
    value {
      type: DT_FLOAT
    }
  }
  attr {
    key: "_class"
    value {
      list {
        s: "loc:@pi/pi_l2/kernel"
      }
    }
  }
  attr {
    key: "_output_shapes"
    value {
      list {
        shape {
          dim {
            size: 400
          }
          dim {
            size: 400
          }
        }
      }
    }
  }
}
node {
  name: "pi/pi_l2/kernel"
  op: "VariableV2"
  device: "/job:ps/task:0"
  attr {
    key: "_class"
    value {
      list {
        s: "loc:@pi/pi_l2/kernel"
      }
    }
  }
  attr {
    key: "_output_shapes"
    value {
      list {
        shape {
          dim {
            size: 400
          }
          dim {
            size: 400
          }
        }
      }
    }
  }
  attr {
    key: "container"
    value {
      s: ""
    }
  }
  attr {
    key: "dtype"
    value {
      type: DT_FLOAT
    }
  }
  attr {
    key: "shape"
    value {
      shape {
        dim {
          size: 400
        }
        dim {
          size: 400
        }
      }
    }
  }
  attr {
    key: "shared_name"
    value {
      s: ""
    }
  }
}
node {
  name: "pi/pi_l2/kernel/Assign"
  op: "Assign"
  input: "pi/pi_l2/kernel"
  input: "pi/pi_l2/kernel/Initializer/random_uniform"
  device: "/job:ps/task:0"
  attr {
    key: "T"
    value {
      type: DT_FLOAT
    }
  }
  attr {
    key: "_class"
    value {
      list {
        s: "loc:@pi/pi_l2/kernel"
      }
    }
  }
  attr {
    key: "_output_shapes"
    value {
      list {
        shape {
          dim {
            size: 400
          }
          dim {
            size: 400
          }
        }
      }
    }
  }
  attr {
    key: "use_locking"
    value {
      b: true
    }
  }
  attr {
    key: "validate_shape"
    value {
      b: true
    }
  }
}
node {
  name: "pi/pi_l2/kernel/read"
  op: "Identity"
  input: "pi/pi_l2/kernel"
  device: "/job:ps/task:0"
  attr {
    key: "T"
    value {
      type: DT_FLOAT
    }
  }
  attr {
    key: "_class"
    value {
      list {
        s: "loc:@pi/pi_l2/kernel"
      }
    }
  }
  attr {
    key: "_output_shapes"
    value {
      list {
        shape {
          dim {
            size: 400
          }
          dim {
            size: 400
          }
        }
      }
    }
  }
}
node {
  name: "pi/pi_l2/kernel/Regularizer/l2_regularizer/scale"
  op: "Const"
  device: "/job:worker/task:0"
  attr {
    key: "_output_shapes"
    value {
      list {
        shape {
        }
      }
    }
  }
  attr {
    key: "dtype"
    value {
      type: DT_FLOAT
    }
  }
  attr {
    key: "value"
    value {
      tensor {
        dtype: DT_FLOAT
        tensor_shape {
        }
        float_val: 0.0010000000474974513
      }
    }
  }
}
node {
  name: "pi/pi_l2/kernel/Regularizer/l2_regularizer/L2Loss"
  op: "L2Loss"
  input: "pi/pi_l2/kernel/read"
  device: "/job:worker/task:0"
  attr {
    key: "T"
    value {
      type: DT_FLOAT
    }
  }
  attr {
    key: "_output_shapes"
    value {
      list {
        shape {
        }
      }
    }
  }
}
node {
  name: "pi/pi_l2/kernel/Regularizer/l2_regularizer"
  op: "Mul"
  input: "pi/pi_l2/kernel/Regularizer/l2_regularizer/scale"
  input: "pi/pi_l2/kernel/Regularizer/l2_regularizer/L2Loss"
  device: "/job:worker/task:0"
  attr {
    key: "T"
    value {
      type: DT_FLOAT
    }
  }
  attr {
    key: "_output_shapes"
    value {
      list {
        shape {
        }
      }
    }
  }
}
node {
  name: "pi/pi_l2/bias/Initializer/zeros"
  op: "Const"
  attr {
    key: "_class"
    value {
      list {
        s: "loc:@pi/pi_l2/bias"
      }
    }
  }
  attr {
    key: "_output_shapes"
    value {
      list {
        shape {
          dim {
            size: 400
          }
        }
      }
    }
  }
  attr {
    key: "dtype"
    value {
      type: DT_FLOAT
    }
  }
  attr {
    key: "value"
    value {
      tensor {
        dtype: DT_FLOAT
        tensor_shape {
          dim {
            size: 400
          }
        }
        float_val: 0.0
      }
    }
  }
}
node {
  name: "pi/pi_l2/bias"
  op: "VariableV2"
  device: "/job:ps/task:0"
  attr {
    key: "_class"
    value {
      list {
        s: "loc:@pi/pi_l2/bias"
      }
    }
  }
  attr {
    key: "_output_shapes"
    value {
      list {
        shape {
          dim {
            size: 400
          }
        }
      }
    }
  }
  attr {
    key: "container"
    value {
      s: ""
    }
  }
  attr {
    key: "dtype"
    value {
      type: DT_FLOAT
    }
  }
  attr {
    key: "shape"
    value {
      shape {
        dim {
          size: 400
        }
      }
    }
  }
  attr {
    key: "shared_name"
    value {
      s: ""
    }
  }
}
node {
  name: "pi/pi_l2/bias/Assign"
  op: "Assign"
  input: "pi/pi_l2/bias"
  input: "pi/pi_l2/bias/Initializer/zeros"
  device: "/job:ps/task:0"
  attr {
    key: "T"
    value {
      type: DT_FLOAT
    }
  }
  attr {
    key: "_class"
    value {
      list {
        s: "loc:@pi/pi_l2/bias"
      }
    }
  }
  attr {
    key: "_output_shapes"
    value {
      list {
        shape {
          dim {
            size: 400
          }
        }
      }
    }
  }
  attr {
    key: "use_locking"
    value {
      b: true
    }
  }
  attr {
    key: "validate_shape"
    value {
      b: true
    }
  }
}
node {
  name: "pi/pi_l2/bias/read"
  op: "Identity"
  input: "pi/pi_l2/bias"
  device: "/job:ps/task:0"
  attr {
    key: "T"
    value {
      type: DT_FLOAT
    }
  }
  attr {
    key: "_class"
    value {
      list {
        s: "loc:@pi/pi_l2/bias"
      }
    }
  }
  attr {
    key: "_output_shapes"
    value {
      list {
        shape {
          dim {
            size: 400
          }
        }
      }
    }
  }
}
node {
  name: "pi/pi_l2/MatMul"
  op: "MatMul"
  input: "pi/pi_l1/Relu"
  input: "pi/pi_l2/kernel/read"
  device: "/job:worker/task:0"
  attr {
    key: "T"
    value {
      type: DT_FLOAT
    }
  }
  attr {
    key: "_output_shapes"
    value {
      list {
        shape {
          dim {
            size: -1
          }
          dim {
            size: 400
          }
        }
      }
    }
  }
  attr {
    key: "transpose_a"
    value {
      b: false
    }
  }
  attr {
    key: "transpose_b"
    value {
      b: false
    }
  }
}
node {
  name: "pi/pi_l2/BiasAdd"
  op: "BiasAdd"
  input: "pi/pi_l2/MatMul"
  input: "pi/pi_l2/bias/read"
  device: "/job:worker/task:0"
  attr {
    key: "T"
    value {
      type: DT_FLOAT
    }
  }
  attr {
    key: "_output_shapes"
    value {
      list {
        shape {
          dim {
            size: -1
          }
          dim {
            size: 400
          }
        }
      }
    }
  }
  attr {
    key: "data_format"
    value {
      s: "NHWC"
    }
  }
}
node {
  name: "pi/pi_l2/Relu"
  op: "Relu"
  input: "pi/pi_l2/BiasAdd"
  device: "/job:worker/task:0"
  attr {
    key: "T"
    value {
      type: DT_FLOAT
    }
  }
  attr {
    key: "_output_shapes"
    value {
      list {
        shape {
          dim {
            size: -1
          }
          dim {
            size: 400
          }
        }
      }
    }
  }
}
node {
  name: "pi/pi_mu/kernel/Initializer/random_uniform/shape"
  op: "Const"
  attr {
    key: "_class"
    value {
      list {
        s: "loc:@pi/pi_mu/kernel"
      }
    }
  }
  attr {
    key: "_output_shapes"
    value {
      list {
        shape {
          dim {
            size: 2
          }
        }
      }
    }
  }
  attr {
    key: "dtype"
    value {
      type: DT_INT32
    }
  }
  attr {
    key: "value"
    value {
      tensor {
        dtype: DT_INT32
        tensor_shape {
          dim {
            size: 2
          }
        }
        tensor_content: "\220\001\000\000\001\000\000\000"
      }
    }
  }
}
node {
  name: "pi/pi_mu/kernel/Initializer/random_uniform/min"
  op: "Const"
  attr {
    key: "_class"
    value {
      list {
        s: "loc:@pi/pi_mu/kernel"
      }
    }
  }
  attr {
    key: "_output_shapes"
    value {
      list {
        shape {
        }
      }
    }
  }
  attr {
    key: "dtype"
    value {
      type: DT_FLOAT
    }
  }
  attr {
    key: "value"
    value {
      tensor {
        dtype: DT_FLOAT
        tensor_shape {
        }
        float_val: -0.12232168018817902
      }
    }
  }
}
node {
  name: "pi/pi_mu/kernel/Initializer/random_uniform/max"
  op: "Const"
  attr {
    key: "_class"
    value {
      list {
        s: "loc:@pi/pi_mu/kernel"
      }
    }
  }
  attr {
    key: "_output_shapes"
    value {
      list {
        shape {
        }
      }
    }
  }
  attr {
    key: "dtype"
    value {
      type: DT_FLOAT
    }
  }
  attr {
    key: "value"
    value {
      tensor {
        dtype: DT_FLOAT
        tensor_shape {
        }
        float_val: 0.12232168018817902
      }
    }
  }
}
node {
  name: "pi/pi_mu/kernel/Initializer/random_uniform/RandomUniform"
  op: "RandomUniform"
  input: "pi/pi_mu/kernel/Initializer/random_uniform/shape"
  attr {
    key: "T"
    value {
      type: DT_INT32
    }
  }
  attr {
    key: "_class"
    value {
      list {
        s: "loc:@pi/pi_mu/kernel"
      }
    }
  }
  attr {
    key: "_output_shapes"
    value {
      list {
        shape {
          dim {
            size: 400
          }
          dim {
            size: 1
          }
        }
      }
    }
  }
  attr {
    key: "dtype"
    value {
      type: DT_FLOAT
    }
  }
  attr {
    key: "seed"
    value {
      i: 0
    }
  }
  attr {
    key: "seed2"
    value {
      i: 0
    }
  }
}
node {
  name: "pi/pi_mu/kernel/Initializer/random_uniform/sub"
  op: "Sub"
  input: "pi/pi_mu/kernel/Initializer/random_uniform/max"
  input: "pi/pi_mu/kernel/Initializer/random_uniform/min"
  attr {
    key: "T"
    value {
      type: DT_FLOAT
    }
  }
  attr {
    key: "_class"
    value {
      list {
        s: "loc:@pi/pi_mu/kernel"
      }
    }
  }
  attr {
    key: "_output_shapes"
    value {
      list {
        shape {
        }
      }
    }
  }
}
node {
  name: "pi/pi_mu/kernel/Initializer/random_uniform/mul"
  op: "Mul"
  input: "pi/pi_mu/kernel/Initializer/random_uniform/RandomUniform"
  input: "pi/pi_mu/kernel/Initializer/random_uniform/sub"
  attr {
    key: "T"
    value {
      type: DT_FLOAT
    }
  }
  attr {
    key: "_class"
    value {
      list {
        s: "loc:@pi/pi_mu/kernel"
      }
    }
  }
  attr {
    key: "_output_shapes"
    value {
      list {
        shape {
          dim {
            size: 400
          }
          dim {
            size: 1
          }
        }
      }
    }
  }
}
node {
  name: "pi/pi_mu/kernel/Initializer/random_uniform"
  op: "Add"
  input: "pi/pi_mu/kernel/Initializer/random_uniform/mul"
  input: "pi/pi_mu/kernel/Initializer/random_uniform/min"
  attr {
    key: "T"
    value {
      type: DT_FLOAT
    }
  }
  attr {
    key: "_class"
    value {
      list {
        s: "loc:@pi/pi_mu/kernel"
      }
    }
  }
  attr {
    key: "_output_shapes"
    value {
      list {
        shape {
          dim {
            size: 400
          }
          dim {
            size: 1
          }
        }
      }
    }
  }
}
node {
  name: "pi/pi_mu/kernel"
  op: "VariableV2"
  device: "/job:ps/task:0"
  attr {
    key: "_class"
    value {
      list {
        s: "loc:@pi/pi_mu/kernel"
      }
    }
  }
  attr {
    key: "_output_shapes"
    value {
      list {
        shape {
          dim {
            size: 400
          }
          dim {
            size: 1
          }
        }
      }
    }
  }
  attr {
    key: "container"
    value {
      s: ""
    }
  }
  attr {
    key: "dtype"
    value {
      type: DT_FLOAT
    }
  }
  attr {
    key: "shape"
    value {
      shape {
        dim {
          size: 400
        }
        dim {
          size: 1
        }
      }
    }
  }
  attr {
    key: "shared_name"
    value {
      s: ""
    }
  }
}
node {
  name: "pi/pi_mu/kernel/Assign"
  op: "Assign"
  input: "pi/pi_mu/kernel"
  input: "pi/pi_mu/kernel/Initializer/random_uniform"
  device: "/job:ps/task:0"
  attr {
    key: "T"
    value {
      type: DT_FLOAT
    }
  }
  attr {
    key: "_class"
    value {
      list {
        s: "loc:@pi/pi_mu/kernel"
      }
    }
  }
  attr {
    key: "_output_shapes"
    value {
      list {
        shape {
          dim {
            size: 400
          }
          dim {
            size: 1
          }
        }
      }
    }
  }
  attr {
    key: "use_locking"
    value {
      b: true
    }
  }
  attr {
    key: "validate_shape"
    value {
      b: true
    }
  }
}
node {
  name: "pi/pi_mu/kernel/read"
  op: "Identity"
  input: "pi/pi_mu/kernel"
  device: "/job:ps/task:0"
  attr {
    key: "T"
    value {
      type: DT_FLOAT
    }
  }
  attr {
    key: "_class"
    value {
      list {
        s: "loc:@pi/pi_mu/kernel"
      }
    }
  }
  attr {
    key: "_output_shapes"
    value {
      list {
        shape {
          dim {
            size: 400
          }
          dim {
            size: 1
          }
        }
      }
    }
  }
}
node {
  name: "pi/pi_mu/kernel/Regularizer/l2_regularizer/scale"
  op: "Const"
  device: "/job:worker/task:0"
  attr {
    key: "_output_shapes"
    value {
      list {
        shape {
        }
      }
    }
  }
  attr {
    key: "dtype"
    value {
      type: DT_FLOAT
    }
  }
  attr {
    key: "value"
    value {
      tensor {
        dtype: DT_FLOAT
        tensor_shape {
        }
        float_val: 0.0010000000474974513
      }
    }
  }
}
node {
  name: "pi/pi_mu/kernel/Regularizer/l2_regularizer/L2Loss"
  op: "L2Loss"
  input: "pi/pi_mu/kernel/read"
  device: "/job:worker/task:0"
  attr {
    key: "T"
    value {
      type: DT_FLOAT
    }
  }
  attr {
    key: "_output_shapes"
    value {
      list {
        shape {
        }
      }
    }
  }
}
node {
  name: "pi/pi_mu/kernel/Regularizer/l2_regularizer"
  op: "Mul"
  input: "pi/pi_mu/kernel/Regularizer/l2_regularizer/scale"
  input: "pi/pi_mu/kernel/Regularizer/l2_regularizer/L2Loss"
  device: "/job:worker/task:0"
  attr {
    key: "T"
    value {
      type: DT_FLOAT
    }
  }
  attr {
    key: "_output_shapes"
    value {
      list {
        shape {
        }
      }
    }
  }
}
node {
  name: "pi/pi_mu/bias/Initializer/zeros"
  op: "Const"
  attr {
    key: "_class"
    value {
      list {
        s: "loc:@pi/pi_mu/bias"
      }
    }
  }
  attr {
    key: "_output_shapes"
    value {
      list {
        shape {
          dim {
            size: 1
          }
        }
      }
    }
  }
  attr {
    key: "dtype"
    value {
      type: DT_FLOAT
    }
  }
  attr {
    key: "value"
    value {
      tensor {
        dtype: DT_FLOAT
        tensor_shape {
          dim {
            size: 1
          }
        }
        float_val: 0.0
      }
    }
  }
}
node {
  name: "pi/pi_mu/bias"
  op: "VariableV2"
  device: "/job:ps/task:0"
  attr {
    key: "_class"
    value {
      list {
        s: "loc:@pi/pi_mu/bias"
      }
    }
  }
  attr {
    key: "_output_shapes"
    value {
      list {
        shape {
          dim {
            size: 1
          }
        }
      }
    }
  }
  attr {
    key: "container"
    value {
      s: ""
    }
  }
  attr {
    key: "dtype"
    value {
      type: DT_FLOAT
    }
  }
  attr {
    key: "shape"
    value {
      shape {
        dim {
          size: 1
        }
      }
    }
  }
  attr {
    key: "shared_name"
    value {
      s: ""
    }
  }
}
node {
  name: "pi/pi_mu/bias/Assign"
  op: "Assign"
  input: "pi/pi_mu/bias"
  input: "pi/pi_mu/bias/Initializer/zeros"
  device: "/job:ps/task:0"
  attr {
    key: "T"
    value {
      type: DT_FLOAT
    }
  }
  attr {
    key: "_class"
    value {
      list {
        s: "loc:@pi/pi_mu/bias"
      }
    }
  }
  attr {
    key: "_output_shapes"
    value {
      list {
        shape {
          dim {
            size: 1
          }
        }
      }
    }
  }
  attr {
    key: "use_locking"
    value {
      b: true
    }
  }
  attr {
    key: "validate_shape"
    value {
      b: true
    }
  }
}
node {
  name: "pi/pi_mu/bias/read"
  op: "Identity"
  input: "pi/pi_mu/bias"
  device: "/job:ps/task:0"
  attr {
    key: "T"
    value {
      type: DT_FLOAT
    }
  }
  attr {
    key: "_class"
    value {
      list {
        s: "loc:@pi/pi_mu/bias"
      }
    }
  }
  attr {
    key: "_output_shapes"
    value {
      list {
        shape {
          dim {
            size: 1
          }
        }
      }
    }
  }
}
node {
  name: "pi/pi_mu/MatMul"
  op: "MatMul"
  input: "pi/pi_l2/Relu"
  input: "pi/pi_mu/kernel/read"
  device: "/job:worker/task:0"
  attr {
    key: "T"
    value {
      type: DT_FLOAT
    }
  }
  attr {
    key: "_output_shapes"
    value {
      list {
        shape {
          dim {
            size: -1
          }
          dim {
            size: 1
          }
        }
      }
    }
  }
  attr {
    key: "transpose_a"
    value {
      b: false
    }
  }
  attr {
    key: "transpose_b"
    value {
      b: false
    }
  }
}
node {
  name: "pi/pi_mu/BiasAdd"
  op: "BiasAdd"
  input: "pi/pi_mu/MatMul"
  input: "pi/pi_mu/bias/read"
  device: "/job:worker/task:0"
  attr {
    key: "T"
    value {
      type: DT_FLOAT
    }
  }
  attr {
    key: "_output_shapes"
    value {
      list {
        shape {
          dim {
            size: -1
          }
          dim {
            size: 1
          }
        }
      }
    }
  }
  attr {
    key: "data_format"
    value {
      s: "NHWC"
    }
  }
}
node {
  name: "pi/pi_mu/Tanh"
  op: "Tanh"
  input: "pi/pi_mu/BiasAdd"
  device: "/job:worker/task:0"
  attr {
    key: "T"
    value {
      type: DT_FLOAT
    }
  }
  attr {
    key: "_output_shapes"
    value {
      list {
        shape {
          dim {
            size: -1
          }
          dim {
            size: 1
          }
        }
      }
    }
  }
}
node {
  name: "pi/pi_sigma/Initializer/zeros"
  op: "Const"
  attr {
    key: "_class"
    value {
      list {
        s: "loc:@pi/pi_sigma"
      }
    }
  }
  attr {
    key: "_output_shapes"
    value {
      list {
        shape {
          dim {
            size: 1
          }
        }
      }
    }
  }
  attr {
    key: "dtype"
    value {
      type: DT_FLOAT
    }
  }
  attr {
    key: "value"
    value {
      tensor {
        dtype: DT_FLOAT
        tensor_shape {
          dim {
            size: 1
          }
        }
        float_val: 0.0
      }
    }
  }
}
node {
  name: "pi/pi_sigma"
  op: "VariableV2"
  device: "/job:ps/task:0"
  attr {
    key: "_class"
    value {
      list {
        s: "loc:@pi/pi_sigma"
      }
    }
  }
  attr {
    key: "_output_shapes"
    value {
      list {
        shape {
          dim {
            size: 1
          }
        }
      }
    }
  }
  attr {
    key: "container"
    value {
      s: ""
    }
  }
  attr {
    key: "dtype"
    value {
      type: DT_FLOAT
    }
  }
  attr {
    key: "shape"
    value {
      shape {
        dim {
          size: 1
        }
      }
    }
  }
  attr {
    key: "shared_name"
    value {
      s: ""
    }
  }
}
node {
  name: "pi/pi_sigma/Assign"
  op: "Assign"
  input: "pi/pi_sigma"
  input: "pi/pi_sigma/Initializer/zeros"
  device: "/job:ps/task:0"
  attr {
    key: "T"
    value {
      type: DT_FLOAT
    }
  }
  attr {
    key: "_class"
    value {
      list {
        s: "loc:@pi/pi_sigma"
      }
    }
  }
  attr {
    key: "_output_shapes"
    value {
      list {
        shape {
          dim {
            size: 1
          }
        }
      }
    }
  }
  attr {
    key: "use_locking"
    value {
      b: true
    }
  }
  attr {
    key: "validate_shape"
    value {
      b: true
    }
  }
}
node {
  name: "pi/pi_sigma/read"
  op: "Identity"
  input: "pi/pi_sigma"
  device: "/job:ps/task:0"
  attr {
    key: "T"
    value {
      type: DT_FLOAT
    }
  }
  attr {
    key: "_class"
    value {
      list {
        s: "loc:@pi/pi_sigma"
      }
    }
  }
  attr {
    key: "_output_shapes"
    value {
      list {
        shape {
          dim {
            size: 1
          }
        }
      }
    }
  }
}
node {
  name: "pi/mul/y"
  op: "Const"
  device: "/job:worker/task:0"
  attr {
    key: "_output_shapes"
    value {
      list {
        shape {
          dim {
            size: 1
          }
        }
      }
    }
  }
  attr {
    key: "dtype"
    value {
      type: DT_FLOAT
    }
  }
  attr {
    key: "value"
    value {
      tensor {
        dtype: DT_FLOAT
        tensor_shape {
          dim {
            size: 1
          }
        }
        float_val: 2.0
      }
    }
  }
}
node {
  name: "pi/mul"
  op: "Mul"
  input: "pi/pi_mu/Tanh"
  input: "pi/mul/y"
  device: "/job:worker/task:0"
  attr {
    key: "T"
    value {
      type: DT_FLOAT
    }
  }
  attr {
    key: "_output_shapes"
    value {
      list {
        shape {
          dim {
            size: -1
          }
          dim {
            size: 1
          }
        }
      }
    }
  }
}
node {
  name: "pi/Exp"
  op: "Exp"
  input: "pi/pi_sigma/read"
  device: "/job:worker/task:0"
  attr {
    key: "T"
    value {
      type: DT_FLOAT
    }
  }
  attr {
    key: "_output_shapes"
    value {
      list {
        shape {
          dim {
            size: 1
          }
        }
      }
    }
  }
}
node {
  name: "pi/Maximum/y"
  op: "Const"
  device: "/job:worker/task:0"
  attr {
    key: "_output_shapes"
    value {
      list {
        shape {
        }
      }
    }
  }
  attr {
    key: "dtype"
    value {
      type: DT_FLOAT
    }
  }
  attr {
    key: "value"
    value {
      tensor {
        dtype: DT_FLOAT
        tensor_shape {
        }
        float_val: 0.0
      }
    }
  }
}
node {
  name: "pi/Maximum"
  op: "Maximum"
  input: "pi/Exp"
  input: "pi/Maximum/y"
  device: "/job:worker/task:0"
  attr {
    key: "T"
    value {
      type: DT_FLOAT
    }
  }
  attr {
    key: "_output_shapes"
    value {
      list {
        shape {
          dim {
            size: 1
          }
        }
      }
    }
  }
}
node {
  name: "pi/Normal/loc"
  op: "Identity"
  input: "pi/mul"
  device: "/job:worker/task:0"
  attr {
    key: "T"
    value {
      type: DT_FLOAT
    }
  }
  attr {
    key: "_output_shapes"
    value {
      list {
        shape {
          dim {
            size: -1
          }
          dim {
            size: 1
          }
        }
      }
    }
  }
}
node {
  name: "pi/Normal/scale"
  op: "Identity"
  input: "pi/Maximum"
  device: "/job:worker/task:0"
  attr {
    key: "T"
    value {
      type: DT_FLOAT
    }
  }
  attr {
    key: "_output_shapes"
    value {
      list {
        shape {
          dim {
            size: 1
          }
        }
      }
    }
  }
}
node {
  name: "pi_1/pi_l1/MatMul"
  op: "MatMul"
  input: "state"
  input: "pi/pi_l1/kernel/read"
  device: "/job:worker/task:0"
  attr {
    key: "T"
    value {
      type: DT_FLOAT
    }
  }
  attr {
    key: "_output_shapes"
    value {
      list {
        shape {
          dim {
            size: -1
          }
          dim {
            size: 400
          }
        }
      }
    }
  }
  attr {
    key: "transpose_a"
    value {
      b: false
    }
  }
  attr {
    key: "transpose_b"
    value {
      b: false
    }
  }
}
node {
  name: "pi_1/pi_l1/BiasAdd"
  op: "BiasAdd"
  input: "pi_1/pi_l1/MatMul"
  input: "pi/pi_l1/bias/read"
  device: "/job:worker/task:0"
  attr {
    key: "T"
    value {
      type: DT_FLOAT
    }
  }
  attr {
    key: "_output_shapes"
    value {
      list {
        shape {
          dim {
            size: -1
          }
          dim {
            size: 400
          }
        }
      }
    }
  }
  attr {
    key: "data_format"
    value {
      s: "NHWC"
    }
  }
}
node {
  name: "pi_1/pi_l1/Relu"
  op: "Relu"
  input: "pi_1/pi_l1/BiasAdd"
  device: "/job:worker/task:0"
  attr {
    key: "T"
    value {
      type: DT_FLOAT
    }
  }
  attr {
    key: "_output_shapes"
    value {
      list {
        shape {
          dim {
            size: -1
          }
          dim {
            size: 400
          }
        }
      }
    }
  }
}
node {
  name: "pi_1/pi_l2/MatMul"
  op: "MatMul"
  input: "pi_1/pi_l1/Relu"
  input: "pi/pi_l2/kernel/read"
  device: "/job:worker/task:0"
  attr {
    key: "T"
    value {
      type: DT_FLOAT
    }
  }
  attr {
    key: "_output_shapes"
    value {
      list {
        shape {
          dim {
            size: -1
          }
          dim {
            size: 400
          }
        }
      }
    }
  }
  attr {
    key: "transpose_a"
    value {
      b: false
    }
  }
  attr {
    key: "transpose_b"
    value {
      b: false
    }
  }
}
node {
  name: "pi_1/pi_l2/BiasAdd"
  op: "BiasAdd"
  input: "pi_1/pi_l2/MatMul"
  input: "pi/pi_l2/bias/read"
  device: "/job:worker/task:0"
  attr {
    key: "T"
    value {
      type: DT_FLOAT
    }
  }
  attr {
    key: "_output_shapes"
    value {
      list {
        shape {
          dim {
            size: -1
          }
          dim {
            size: 400
          }
        }
      }
    }
  }
  attr {
    key: "data_format"
    value {
      s: "NHWC"
    }
  }
}
node {
  name: "pi_1/pi_l2/Relu"
  op: "Relu"
  input: "pi_1/pi_l2/BiasAdd"
  device: "/job:worker/task:0"
  attr {
    key: "T"
    value {
      type: DT_FLOAT
    }
  }
  attr {
    key: "_output_shapes"
    value {
      list {
        shape {
          dim {
            size: -1
          }
          dim {
            size: 400
          }
        }
      }
    }
  }
}
node {
  name: "pi_1/pi_mu/MatMul"
  op: "MatMul"
  input: "pi_1/pi_l2/Relu"
  input: "pi/pi_mu/kernel/read"
  device: "/job:worker/task:0"
  attr {
    key: "T"
    value {
      type: DT_FLOAT
    }
  }
  attr {
    key: "_output_shapes"
    value {
      list {
        shape {
          dim {
            size: -1
          }
          dim {
            size: 1
          }
        }
      }
    }
  }
  attr {
    key: "transpose_a"
    value {
      b: false
    }
  }
  attr {
    key: "transpose_b"
    value {
      b: false
    }
  }
}
node {
  name: "pi_1/pi_mu/BiasAdd"
  op: "BiasAdd"
  input: "pi_1/pi_mu/MatMul"
  input: "pi/pi_mu/bias/read"
  device: "/job:worker/task:0"
  attr {
    key: "T"
    value {
      type: DT_FLOAT
    }
  }
  attr {
    key: "_output_shapes"
    value {
      list {
        shape {
          dim {
            size: -1
          }
          dim {
            size: 1
          }
        }
      }
    }
  }
  attr {
    key: "data_format"
    value {
      s: "NHWC"
    }
  }
}
node {
  name: "pi_1/pi_mu/Tanh"
  op: "Tanh"
  input: "pi_1/pi_mu/BiasAdd"
  device: "/job:worker/task:0"
  attr {
    key: "T"
    value {
      type: DT_FLOAT
    }
  }
  attr {
    key: "_output_shapes"
    value {
      list {
        shape {
          dim {
            size: -1
          }
          dim {
            size: 1
          }
        }
      }
    }
  }
}
node {
  name: "pi_1/mul/y"
  op: "Const"
  device: "/job:worker/task:0"
  attr {
    key: "_output_shapes"
    value {
      list {
        shape {
          dim {
            size: 1
          }
        }
      }
    }
  }
  attr {
    key: "dtype"
    value {
      type: DT_FLOAT
    }
  }
  attr {
    key: "value"
    value {
      tensor {
        dtype: DT_FLOAT
        tensor_shape {
          dim {
            size: 1
          }
        }
        float_val: 2.0
      }
    }
  }
}
node {
  name: "pi_1/mul"
  op: "Mul"
  input: "pi_1/pi_mu/Tanh"
  input: "pi_1/mul/y"
  device: "/job:worker/task:0"
  attr {
    key: "T"
    value {
      type: DT_FLOAT
    }
  }
  attr {
    key: "_output_shapes"
    value {
      list {
        shape {
          dim {
            size: -1
          }
          dim {
            size: 1
          }
        }
      }
    }
  }
}
node {
  name: "pi_1/Exp"
  op: "Exp"
  input: "pi/pi_sigma/read"
  device: "/job:worker/task:0"
  attr {
    key: "T"
    value {
      type: DT_FLOAT
    }
  }
  attr {
    key: "_output_shapes"
    value {
      list {
        shape {
          dim {
            size: 1
          }
        }
      }
    }
  }
}
node {
  name: "pi_1/Maximum/y"
  op: "Const"
  device: "/job:worker/task:0"
  attr {
    key: "_output_shapes"
    value {
      list {
        shape {
        }
      }
    }
  }
  attr {
    key: "dtype"
    value {
      type: DT_FLOAT
    }
  }
  attr {
    key: "value"
    value {
      tensor {
        dtype: DT_FLOAT
        tensor_shape {
        }
        float_val: 0.0
      }
    }
  }
}
node {
  name: "pi_1/Maximum"
  op: "Maximum"
  input: "pi_1/Exp"
  input: "pi_1/Maximum/y"
  device: "/job:worker/task:0"
  attr {
    key: "T"
    value {
      type: DT_FLOAT
    }
  }
  attr {
    key: "_output_shapes"
    value {
      list {
        shape {
          dim {
            size: 1
          }
        }
      }
    }
  }
}
node {
  name: "pi_1/Normal/loc"
  op: "Identity"
  input: "pi_1/mul"
  device: "/job:worker/task:0"
  attr {
    key: "T"
    value {
      type: DT_FLOAT
    }
  }
  attr {
    key: "_output_shapes"
    value {
      list {
        shape {
          dim {
            size: -1
          }
          dim {
            size: 1
          }
        }
      }
    }
  }
}
node {
  name: "pi_1/Normal/scale"
  op: "Identity"
  input: "pi_1/Maximum"
  device: "/job:worker/task:0"
  attr {
    key: "T"
    value {
      type: DT_FLOAT
    }
  }
  attr {
    key: "_output_shapes"
    value {
      list {
        shape {
          dim {
            size: 1
          }
        }
      }
    }
  }
}
node {
  name: "oldvf/vf_l1/kernel/Initializer/random_uniform/shape"
  op: "Const"
  attr {
    key: "_class"
    value {
      list {
        s: "loc:@oldvf/vf_l1/kernel"
      }
    }
  }
  attr {
    key: "_output_shapes"
    value {
      list {
        shape {
          dim {
            size: 2
          }
        }
      }
    }
  }
  attr {
    key: "dtype"
    value {
      type: DT_INT32
    }
  }
  attr {
    key: "value"
    value {
      tensor {
        dtype: DT_INT32
        tensor_shape {
          dim {
            size: 2
          }
        }
        tensor_content: "\003\000\000\000\220\001\000\000"
      }
    }
  }
}
node {
  name: "oldvf/vf_l1/kernel/Initializer/random_uniform/min"
  op: "Const"
  attr {
    key: "_class"
    value {
      list {
        s: "loc:@oldvf/vf_l1/kernel"
      }
    }
  }
  attr {
    key: "_output_shapes"
    value {
      list {
        shape {
        }
      }
    }
  }
  attr {
    key: "dtype"
    value {
      type: DT_FLOAT
    }
  }
  attr {
    key: "value"
    value {
      tensor {
        dtype: DT_FLOAT
        tensor_shape {
        }
        float_val: -0.12201777845621109
      }
    }
  }
}
node {
  name: "oldvf/vf_l1/kernel/Initializer/random_uniform/max"
  op: "Const"
  attr {
    key: "_class"
    value {
      list {
        s: "loc:@oldvf/vf_l1/kernel"
      }
    }
  }
  attr {
    key: "_output_shapes"
    value {
      list {
        shape {
        }
      }
    }
  }
  attr {
    key: "dtype"
    value {
      type: DT_FLOAT
    }
  }
  attr {
    key: "value"
    value {
      tensor {
        dtype: DT_FLOAT
        tensor_shape {
        }
        float_val: 0.12201777845621109
      }
    }
  }
}
node {
  name: "oldvf/vf_l1/kernel/Initializer/random_uniform/RandomUniform"
  op: "RandomUniform"
  input: "oldvf/vf_l1/kernel/Initializer/random_uniform/shape"
  attr {
    key: "T"
    value {
      type: DT_INT32
    }
  }
  attr {
    key: "_class"
    value {
      list {
        s: "loc:@oldvf/vf_l1/kernel"
      }
    }
  }
  attr {
    key: "_output_shapes"
    value {
      list {
        shape {
          dim {
            size: 3
          }
          dim {
            size: 400
          }
        }
      }
    }
  }
  attr {
    key: "dtype"
    value {
      type: DT_FLOAT
    }
  }
  attr {
    key: "seed"
    value {
      i: 0
    }
  }
  attr {
    key: "seed2"
    value {
      i: 0
    }
  }
}
node {
  name: "oldvf/vf_l1/kernel/Initializer/random_uniform/sub"
  op: "Sub"
  input: "oldvf/vf_l1/kernel/Initializer/random_uniform/max"
  input: "oldvf/vf_l1/kernel/Initializer/random_uniform/min"
  attr {
    key: "T"
    value {
      type: DT_FLOAT
    }
  }
  attr {
    key: "_class"
    value {
      list {
        s: "loc:@oldvf/vf_l1/kernel"
      }
    }
  }
  attr {
    key: "_output_shapes"
    value {
      list {
        shape {
        }
      }
    }
  }
}
node {
  name: "oldvf/vf_l1/kernel/Initializer/random_uniform/mul"
  op: "Mul"
  input: "oldvf/vf_l1/kernel/Initializer/random_uniform/RandomUniform"
  input: "oldvf/vf_l1/kernel/Initializer/random_uniform/sub"
  attr {
    key: "T"
    value {
      type: DT_FLOAT
    }
  }
  attr {
    key: "_class"
    value {
      list {
        s: "loc:@oldvf/vf_l1/kernel"
      }
    }
  }
  attr {
    key: "_output_shapes"
    value {
      list {
        shape {
          dim {
            size: 3
          }
          dim {
            size: 400
          }
        }
      }
    }
  }
}
node {
  name: "oldvf/vf_l1/kernel/Initializer/random_uniform"
  op: "Add"
  input: "oldvf/vf_l1/kernel/Initializer/random_uniform/mul"
  input: "oldvf/vf_l1/kernel/Initializer/random_uniform/min"
  attr {
    key: "T"
    value {
      type: DT_FLOAT
    }
  }
  attr {
    key: "_class"
    value {
      list {
        s: "loc:@oldvf/vf_l1/kernel"
      }
    }
  }
  attr {
    key: "_output_shapes"
    value {
      list {
        shape {
          dim {
            size: 3
          }
          dim {
            size: 400
          }
        }
      }
    }
  }
}
node {
  name: "oldvf/vf_l1/kernel"
  op: "VariableV2"
  device: "/job:ps/task:0"
  attr {
    key: "_class"
    value {
      list {
        s: "loc:@oldvf/vf_l1/kernel"
      }
    }
  }
  attr {
    key: "_output_shapes"
    value {
      list {
        shape {
          dim {
            size: 3
          }
          dim {
            size: 400
          }
        }
      }
    }
  }
  attr {
    key: "container"
    value {
      s: ""
    }
  }
  attr {
    key: "dtype"
    value {
      type: DT_FLOAT
    }
  }
  attr {
    key: "shape"
    value {
      shape {
        dim {
          size: 3
        }
        dim {
          size: 400
        }
      }
    }
  }
  attr {
    key: "shared_name"
    value {
      s: ""
    }
  }
}
node {
  name: "oldvf/vf_l1/kernel/Assign"
  op: "Assign"
  input: "oldvf/vf_l1/kernel"
  input: "oldvf/vf_l1/kernel/Initializer/random_uniform"
  device: "/job:ps/task:0"
  attr {
    key: "T"
    value {
      type: DT_FLOAT
    }
  }
  attr {
    key: "_class"
    value {
      list {
        s: "loc:@oldvf/vf_l1/kernel"
      }
    }
  }
  attr {
    key: "_output_shapes"
    value {
      list {
        shape {
          dim {
            size: 3
          }
          dim {
            size: 400
          }
        }
      }
    }
  }
  attr {
    key: "use_locking"
    value {
      b: true
    }
  }
  attr {
    key: "validate_shape"
    value {
      b: true
    }
  }
}
node {
  name: "oldvf/vf_l1/kernel/read"
  op: "Identity"
  input: "oldvf/vf_l1/kernel"
  device: "/job:ps/task:0"
  attr {
    key: "T"
    value {
      type: DT_FLOAT
    }
  }
  attr {
    key: "_class"
    value {
      list {
        s: "loc:@oldvf/vf_l1/kernel"
      }
    }
  }
  attr {
    key: "_output_shapes"
    value {
      list {
        shape {
          dim {
            size: 3
          }
          dim {
            size: 400
          }
        }
      }
    }
  }
}
node {
  name: "oldvf/vf_l1/kernel/Regularizer/l2_regularizer/scale"
  op: "Const"
  device: "/job:worker/task:0"
  attr {
    key: "_output_shapes"
    value {
      list {
        shape {
        }
      }
    }
  }
  attr {
    key: "dtype"
    value {
      type: DT_FLOAT
    }
  }
  attr {
    key: "value"
    value {
      tensor {
        dtype: DT_FLOAT
        tensor_shape {
        }
        float_val: 0.0010000000474974513
      }
    }
  }
}
node {
  name: "oldvf/vf_l1/kernel/Regularizer/l2_regularizer/L2Loss"
  op: "L2Loss"
  input: "oldvf/vf_l1/kernel/read"
  device: "/job:worker/task:0"
  attr {
    key: "T"
    value {
      type: DT_FLOAT
    }
  }
  attr {
    key: "_output_shapes"
    value {
      list {
        shape {
        }
      }
    }
  }
}
node {
  name: "oldvf/vf_l1/kernel/Regularizer/l2_regularizer"
  op: "Mul"
  input: "oldvf/vf_l1/kernel/Regularizer/l2_regularizer/scale"
  input: "oldvf/vf_l1/kernel/Regularizer/l2_regularizer/L2Loss"
  device: "/job:worker/task:0"
  attr {
    key: "T"
    value {
      type: DT_FLOAT
    }
  }
  attr {
    key: "_output_shapes"
    value {
      list {
        shape {
        }
      }
    }
  }
}
node {
  name: "oldvf/vf_l1/bias/Initializer/zeros"
  op: "Const"
  attr {
    key: "_class"
    value {
      list {
        s: "loc:@oldvf/vf_l1/bias"
      }
    }
  }
  attr {
    key: "_output_shapes"
    value {
      list {
        shape {
          dim {
            size: 400
          }
        }
      }
    }
  }
  attr {
    key: "dtype"
    value {
      type: DT_FLOAT
    }
  }
  attr {
    key: "value"
    value {
      tensor {
        dtype: DT_FLOAT
        tensor_shape {
          dim {
            size: 400
          }
        }
        float_val: 0.0
      }
    }
  }
}
node {
  name: "oldvf/vf_l1/bias"
  op: "VariableV2"
  device: "/job:ps/task:0"
  attr {
    key: "_class"
    value {
      list {
        s: "loc:@oldvf/vf_l1/bias"
      }
    }
  }
  attr {
    key: "_output_shapes"
    value {
      list {
        shape {
          dim {
            size: 400
          }
        }
      }
    }
  }
  attr {
    key: "container"
    value {
      s: ""
    }
  }
  attr {
    key: "dtype"
    value {
      type: DT_FLOAT
    }
  }
  attr {
    key: "shape"
    value {
      shape {
        dim {
          size: 400
        }
      }
    }
  }
  attr {
    key: "shared_name"
    value {
      s: ""
    }
  }
}
node {
  name: "oldvf/vf_l1/bias/Assign"
  op: "Assign"
  input: "oldvf/vf_l1/bias"
  input: "oldvf/vf_l1/bias/Initializer/zeros"
  device: "/job:ps/task:0"
  attr {
    key: "T"
    value {
      type: DT_FLOAT
    }
  }
  attr {
    key: "_class"
    value {
      list {
        s: "loc:@oldvf/vf_l1/bias"
      }
    }
  }
  attr {
    key: "_output_shapes"
    value {
      list {
        shape {
          dim {
            size: 400
          }
        }
      }
    }
  }
  attr {
    key: "use_locking"
    value {
      b: true
    }
  }
  attr {
    key: "validate_shape"
    value {
      b: true
    }
  }
}
node {
  name: "oldvf/vf_l1/bias/read"
  op: "Identity"
  input: "oldvf/vf_l1/bias"
  device: "/job:ps/task:0"
  attr {
    key: "T"
    value {
      type: DT_FLOAT
    }
  }
  attr {
    key: "_class"
    value {
      list {
        s: "loc:@oldvf/vf_l1/bias"
      }
    }
  }
  attr {
    key: "_output_shapes"
    value {
      list {
        shape {
          dim {
            size: 400
          }
        }
      }
    }
  }
}
node {
  name: "oldvf/vf_l1/MatMul"
  op: "MatMul"
  input: "IteratorGetNext:3"
  input: "oldvf/vf_l1/kernel/read"
  device: "/job:worker/task:0"
  attr {
    key: "T"
    value {
      type: DT_FLOAT
    }
  }
  attr {
    key: "_output_shapes"
    value {
      list {
        shape {
          dim {
            size: -1
          }
          dim {
            size: 400
          }
        }
      }
    }
  }
  attr {
    key: "transpose_a"
    value {
      b: false
    }
  }
  attr {
    key: "transpose_b"
    value {
      b: false
    }
  }
}
node {
  name: "oldvf/vf_l1/BiasAdd"
  op: "BiasAdd"
  input: "oldvf/vf_l1/MatMul"
  input: "oldvf/vf_l1/bias/read"
  device: "/job:worker/task:0"
  attr {
    key: "T"
    value {
      type: DT_FLOAT
    }
  }
  attr {
    key: "_output_shapes"
    value {
      list {
        shape {
          dim {
            size: -1
          }
          dim {
            size: 400
          }
        }
      }
    }
  }
  attr {
    key: "data_format"
    value {
      s: "NHWC"
    }
  }
}
node {
  name: "oldvf/vf_l1/Relu"
  op: "Relu"
  input: "oldvf/vf_l1/BiasAdd"
  device: "/job:worker/task:0"
  attr {
    key: "T"
    value {
      type: DT_FLOAT
    }
  }
  attr {
    key: "_output_shapes"
    value {
      list {
        shape {
          dim {
            size: -1
          }
          dim {
            size: 400
          }
        }
      }
    }
  }
}
node {
  name: "oldvf/vf_l2/kernel/Initializer/random_uniform/shape"
  op: "Const"
  attr {
    key: "_class"
    value {
      list {
        s: "loc:@oldvf/vf_l2/kernel"
      }
    }
  }
  attr {
    key: "_output_shapes"
    value {
      list {
        shape {
          dim {
            size: 2
          }
        }
      }
    }
  }
  attr {
    key: "dtype"
    value {
      type: DT_INT32
    }
  }
  attr {
    key: "value"
    value {
      tensor {
        dtype: DT_INT32
        tensor_shape {
          dim {
            size: 2
          }
        }
        tensor_content: "\220\001\000\000\220\001\000\000"
      }
    }
  }
}
node {
  name: "oldvf/vf_l2/kernel/Initializer/random_uniform/min"
  op: "Const"
  attr {
    key: "_class"
    value {
      list {
        s: "loc:@oldvf/vf_l2/kernel"
      }
    }
  }
  attr {
    key: "_output_shapes"
    value {
      list {
        shape {
        }
      }
    }
  }
  attr {
    key: "dtype"
    value {
      type: DT_FLOAT
    }
  }
  attr {
    key: "value"
    value {
      tensor {
        dtype: DT_FLOAT
        tensor_shape {
        }
        float_val: -0.08660253882408142
      }
    }
  }
}
node {
  name: "oldvf/vf_l2/kernel/Initializer/random_uniform/max"
  op: "Const"
  attr {
    key: "_class"
    value {
      list {
        s: "loc:@oldvf/vf_l2/kernel"
      }
    }
  }
  attr {
    key: "_output_shapes"
    value {
      list {
        shape {
        }
      }
    }
  }
  attr {
    key: "dtype"
    value {
      type: DT_FLOAT
    }
  }
  attr {
    key: "value"
    value {
      tensor {
        dtype: DT_FLOAT
        tensor_shape {
        }
        float_val: 0.08660253882408142
      }
    }
  }
}
node {
  name: "oldvf/vf_l2/kernel/Initializer/random_uniform/RandomUniform"
  op: "RandomUniform"
  input: "oldvf/vf_l2/kernel/Initializer/random_uniform/shape"
  attr {
    key: "T"
    value {
      type: DT_INT32
    }
  }
  attr {
    key: "_class"
    value {
      list {
        s: "loc:@oldvf/vf_l2/kernel"
      }
    }
  }
  attr {
    key: "_output_shapes"
    value {
      list {
        shape {
          dim {
            size: 400
          }
          dim {
            size: 400
          }
        }
      }
    }
  }
  attr {
    key: "dtype"
    value {
      type: DT_FLOAT
    }
  }
  attr {
    key: "seed"
    value {
      i: 0
    }
  }
  attr {
    key: "seed2"
    value {
      i: 0
    }
  }
}
node {
  name: "oldvf/vf_l2/kernel/Initializer/random_uniform/sub"
  op: "Sub"
  input: "oldvf/vf_l2/kernel/Initializer/random_uniform/max"
  input: "oldvf/vf_l2/kernel/Initializer/random_uniform/min"
  attr {
    key: "T"
    value {
      type: DT_FLOAT
    }
  }
  attr {
    key: "_class"
    value {
      list {
        s: "loc:@oldvf/vf_l2/kernel"
      }
    }
  }
  attr {
    key: "_output_shapes"
    value {
      list {
        shape {
        }
      }
    }
  }
}
node {
  name: "oldvf/vf_l2/kernel/Initializer/random_uniform/mul"
  op: "Mul"
  input: "oldvf/vf_l2/kernel/Initializer/random_uniform/RandomUniform"
  input: "oldvf/vf_l2/kernel/Initializer/random_uniform/sub"
  attr {
    key: "T"
    value {
      type: DT_FLOAT
    }
  }
  attr {
    key: "_class"
    value {
      list {
        s: "loc:@oldvf/vf_l2/kernel"
      }
    }
  }
  attr {
    key: "_output_shapes"
    value {
      list {
        shape {
          dim {
            size: 400
          }
          dim {
            size: 400
          }
        }
      }
    }
  }
}
node {
  name: "oldvf/vf_l2/kernel/Initializer/random_uniform"
  op: "Add"
  input: "oldvf/vf_l2/kernel/Initializer/random_uniform/mul"
  input: "oldvf/vf_l2/kernel/Initializer/random_uniform/min"
  attr {
    key: "T"
    value {
      type: DT_FLOAT
    }
  }
  attr {
    key: "_class"
    value {
      list {
        s: "loc:@oldvf/vf_l2/kernel"
      }
    }
  }
  attr {
    key: "_output_shapes"
    value {
      list {
        shape {
          dim {
            size: 400
          }
          dim {
            size: 400
          }
        }
      }
    }
  }
}
node {
  name: "oldvf/vf_l2/kernel"
  op: "VariableV2"
  device: "/job:ps/task:0"
  attr {
    key: "_class"
    value {
      list {
        s: "loc:@oldvf/vf_l2/kernel"
      }
    }
  }
  attr {
    key: "_output_shapes"
    value {
      list {
        shape {
          dim {
            size: 400
          }
          dim {
            size: 400
          }
        }
      }
    }
  }
  attr {
    key: "container"
    value {
      s: ""
    }
  }
  attr {
    key: "dtype"
    value {
      type: DT_FLOAT
    }
  }
  attr {
    key: "shape"
    value {
      shape {
        dim {
          size: 400
        }
        dim {
          size: 400
        }
      }
    }
  }
  attr {
    key: "shared_name"
    value {
      s: ""
    }
  }
}
node {
  name: "oldvf/vf_l2/kernel/Assign"
  op: "Assign"
  input: "oldvf/vf_l2/kernel"
  input: "oldvf/vf_l2/kernel/Initializer/random_uniform"
  device: "/job:ps/task:0"
  attr {
    key: "T"
    value {
      type: DT_FLOAT
    }
  }
  attr {
    key: "_class"
    value {
      list {
        s: "loc:@oldvf/vf_l2/kernel"
      }
    }
  }
  attr {
    key: "_output_shapes"
    value {
      list {
        shape {
          dim {
            size: 400
          }
          dim {
            size: 400
          }
        }
      }
    }
  }
  attr {
    key: "use_locking"
    value {
      b: true
    }
  }
  attr {
    key: "validate_shape"
    value {
      b: true
    }
  }
}
node {
  name: "oldvf/vf_l2/kernel/read"
  op: "Identity"
  input: "oldvf/vf_l2/kernel"
  device: "/job:ps/task:0"
  attr {
    key: "T"
    value {
      type: DT_FLOAT
    }
  }
  attr {
    key: "_class"
    value {
      list {
        s: "loc:@oldvf/vf_l2/kernel"
      }
    }
  }
  attr {
    key: "_output_shapes"
    value {
      list {
        shape {
          dim {
            size: 400
          }
          dim {
            size: 400
          }
        }
      }
    }
  }
}
node {
  name: "oldvf/vf_l2/kernel/Regularizer/l2_regularizer/scale"
  op: "Const"
  device: "/job:worker/task:0"
  attr {
    key: "_output_shapes"
    value {
      list {
        shape {
        }
      }
    }
  }
  attr {
    key: "dtype"
    value {
      type: DT_FLOAT
    }
  }
  attr {
    key: "value"
    value {
      tensor {
        dtype: DT_FLOAT
        tensor_shape {
        }
        float_val: 0.0010000000474974513
      }
    }
  }
}
node {
  name: "oldvf/vf_l2/kernel/Regularizer/l2_regularizer/L2Loss"
  op: "L2Loss"
  input: "oldvf/vf_l2/kernel/read"
  device: "/job:worker/task:0"
  attr {
    key: "T"
    value {
      type: DT_FLOAT
    }
  }
  attr {
    key: "_output_shapes"
    value {
      list {
        shape {
        }
      }
    }
  }
}
node {
  name: "oldvf/vf_l2/kernel/Regularizer/l2_regularizer"
  op: "Mul"
  input: "oldvf/vf_l2/kernel/Regularizer/l2_regularizer/scale"
  input: "oldvf/vf_l2/kernel/Regularizer/l2_regularizer/L2Loss"
  device: "/job:worker/task:0"
  attr {
    key: "T"
    value {
      type: DT_FLOAT
    }
  }
  attr {
    key: "_output_shapes"
    value {
      list {
        shape {
        }
      }
    }
  }
}
node {
  name: "oldvf/vf_l2/bias/Initializer/zeros"
  op: "Const"
  attr {
    key: "_class"
    value {
      list {
        s: "loc:@oldvf/vf_l2/bias"
      }
    }
  }
  attr {
    key: "_output_shapes"
    value {
      list {
        shape {
          dim {
            size: 400
          }
        }
      }
    }
  }
  attr {
    key: "dtype"
    value {
      type: DT_FLOAT
    }
  }
  attr {
    key: "value"
    value {
      tensor {
        dtype: DT_FLOAT
        tensor_shape {
          dim {
            size: 400
          }
        }
        float_val: 0.0
      }
    }
  }
}
node {
  name: "oldvf/vf_l2/bias"
  op: "VariableV2"
  device: "/job:ps/task:0"
  attr {
    key: "_class"
    value {
      list {
        s: "loc:@oldvf/vf_l2/bias"
      }
    }
  }
  attr {
    key: "_output_shapes"
    value {
      list {
        shape {
          dim {
            size: 400
          }
        }
      }
    }
  }
  attr {
    key: "container"
    value {
      s: ""
    }
  }
  attr {
    key: "dtype"
    value {
      type: DT_FLOAT
    }
  }
  attr {
    key: "shape"
    value {
      shape {
        dim {
          size: 400
        }
      }
    }
  }
  attr {
    key: "shared_name"
    value {
      s: ""
    }
  }
}
node {
  name: "oldvf/vf_l2/bias/Assign"
  op: "Assign"
  input: "oldvf/vf_l2/bias"
  input: "oldvf/vf_l2/bias/Initializer/zeros"
  device: "/job:ps/task:0"
  attr {
    key: "T"
    value {
      type: DT_FLOAT
    }
  }
  attr {
    key: "_class"
    value {
      list {
        s: "loc:@oldvf/vf_l2/bias"
      }
    }
  }
  attr {
    key: "_output_shapes"
    value {
      list {
        shape {
          dim {
            size: 400
          }
        }
      }
    }
  }
  attr {
    key: "use_locking"
    value {
      b: true
    }
  }
  attr {
    key: "validate_shape"
    value {
      b: true
    }
  }
}
node {
  name: "oldvf/vf_l2/bias/read"
  op: "Identity"
  input: "oldvf/vf_l2/bias"
  device: "/job:ps/task:0"
  attr {
    key: "T"
    value {
      type: DT_FLOAT
    }
  }
  attr {
    key: "_class"
    value {
      list {
        s: "loc:@oldvf/vf_l2/bias"
      }
    }
  }
  attr {
    key: "_output_shapes"
    value {
      list {
        shape {
          dim {
            size: 400
          }
        }
      }
    }
  }
}
node {
  name: "oldvf/vf_l2/MatMul"
  op: "MatMul"
  input: "oldvf/vf_l1/Relu"
  input: "oldvf/vf_l2/kernel/read"
  device: "/job:worker/task:0"
  attr {
    key: "T"
    value {
      type: DT_FLOAT
    }
  }
  attr {
    key: "_output_shapes"
    value {
      list {
        shape {
          dim {
            size: -1
          }
          dim {
            size: 400
          }
        }
      }
    }
  }
  attr {
    key: "transpose_a"
    value {
      b: false
    }
  }
  attr {
    key: "transpose_b"
    value {
      b: false
    }
  }
}
node {
  name: "oldvf/vf_l2/BiasAdd"
  op: "BiasAdd"
  input: "oldvf/vf_l2/MatMul"
  input: "oldvf/vf_l2/bias/read"
  device: "/job:worker/task:0"
  attr {
    key: "T"
    value {
      type: DT_FLOAT
    }
  }
  attr {
    key: "_output_shapes"
    value {
      list {
        shape {
          dim {
            size: -1
          }
          dim {
            size: 400
          }
        }
      }
    }
  }
  attr {
    key: "data_format"
    value {
      s: "NHWC"
    }
  }
}
node {
  name: "oldvf/vf_l2/Relu"
  op: "Relu"
  input: "oldvf/vf_l2/BiasAdd"
  device: "/job:worker/task:0"
  attr {
    key: "T"
    value {
      type: DT_FLOAT
    }
  }
  attr {
    key: "_output_shapes"
    value {
      list {
        shape {
          dim {
            size: -1
          }
          dim {
            size: 400
          }
        }
      }
    }
  }
}
node {
  name: "oldvf/vf_output/kernel/Initializer/random_uniform/shape"
  op: "Const"
  attr {
    key: "_class"
    value {
      list {
        s: "loc:@oldvf/vf_output/kernel"
      }
    }
  }
  attr {
    key: "_output_shapes"
    value {
      list {
        shape {
          dim {
            size: 2
          }
        }
      }
    }
  }
  attr {
    key: "dtype"
    value {
      type: DT_INT32
    }
  }
  attr {
    key: "value"
    value {
      tensor {
        dtype: DT_INT32
        tensor_shape {
          dim {
            size: 2
          }
        }
        tensor_content: "\220\001\000\000\001\000\000\000"
      }
    }
  }
}
node {
  name: "oldvf/vf_output/kernel/Initializer/random_uniform/min"
  op: "Const"
  attr {
    key: "_class"
    value {
      list {
        s: "loc:@oldvf/vf_output/kernel"
      }
    }
  }
  attr {
    key: "_output_shapes"
    value {
      list {
        shape {
        }
      }
    }
  }
  attr {
    key: "dtype"
    value {
      type: DT_FLOAT
    }
  }
  attr {
    key: "value"
    value {
      tensor {
        dtype: DT_FLOAT
        tensor_shape {
        }
        float_val: -0.12232168018817902
      }
    }
  }
}
node {
  name: "oldvf/vf_output/kernel/Initializer/random_uniform/max"
  op: "Const"
  attr {
    key: "_class"
    value {
      list {
        s: "loc:@oldvf/vf_output/kernel"
      }
    }
  }
  attr {
    key: "_output_shapes"
    value {
      list {
        shape {
        }
      }
    }
  }
  attr {
    key: "dtype"
    value {
      type: DT_FLOAT
    }
  }
  attr {
    key: "value"
    value {
      tensor {
        dtype: DT_FLOAT
        tensor_shape {
        }
        float_val: 0.12232168018817902
      }
    }
  }
}
node {
  name: "oldvf/vf_output/kernel/Initializer/random_uniform/RandomUniform"
  op: "RandomUniform"
  input: "oldvf/vf_output/kernel/Initializer/random_uniform/shape"
  attr {
    key: "T"
    value {
      type: DT_INT32
    }
  }
  attr {
    key: "_class"
    value {
      list {
        s: "loc:@oldvf/vf_output/kernel"
      }
    }
  }
  attr {
    key: "_output_shapes"
    value {
      list {
        shape {
          dim {
            size: 400
          }
          dim {
            size: 1
          }
        }
      }
    }
  }
  attr {
    key: "dtype"
    value {
      type: DT_FLOAT
    }
  }
  attr {
    key: "seed"
    value {
      i: 0
    }
  }
  attr {
    key: "seed2"
    value {
      i: 0
    }
  }
}
node {
  name: "oldvf/vf_output/kernel/Initializer/random_uniform/sub"
  op: "Sub"
  input: "oldvf/vf_output/kernel/Initializer/random_uniform/max"
  input: "oldvf/vf_output/kernel/Initializer/random_uniform/min"
  attr {
    key: "T"
    value {
      type: DT_FLOAT
    }
  }
  attr {
    key: "_class"
    value {
      list {
        s: "loc:@oldvf/vf_output/kernel"
      }
    }
  }
  attr {
    key: "_output_shapes"
    value {
      list {
        shape {
        }
      }
    }
  }
}
node {
  name: "oldvf/vf_output/kernel/Initializer/random_uniform/mul"
  op: "Mul"
  input: "oldvf/vf_output/kernel/Initializer/random_uniform/RandomUniform"
  input: "oldvf/vf_output/kernel/Initializer/random_uniform/sub"
  attr {
    key: "T"
    value {
      type: DT_FLOAT
    }
  }
  attr {
    key: "_class"
    value {
      list {
        s: "loc:@oldvf/vf_output/kernel"
      }
    }
  }
  attr {
    key: "_output_shapes"
    value {
      list {
        shape {
          dim {
            size: 400
          }
          dim {
            size: 1
          }
        }
      }
    }
  }
}
node {
  name: "oldvf/vf_output/kernel/Initializer/random_uniform"
  op: "Add"
  input: "oldvf/vf_output/kernel/Initializer/random_uniform/mul"
  input: "oldvf/vf_output/kernel/Initializer/random_uniform/min"
  attr {
    key: "T"
    value {
      type: DT_FLOAT
    }
  }
  attr {
    key: "_class"
    value {
      list {
        s: "loc:@oldvf/vf_output/kernel"
      }
    }
  }
  attr {
    key: "_output_shapes"
    value {
      list {
        shape {
          dim {
            size: 400
          }
          dim {
            size: 1
          }
        }
      }
    }
  }
}
node {
  name: "oldvf/vf_output/kernel"
  op: "VariableV2"
  device: "/job:ps/task:0"
  attr {
    key: "_class"
    value {
      list {
        s: "loc:@oldvf/vf_output/kernel"
      }
    }
  }
  attr {
    key: "_output_shapes"
    value {
      list {
        shape {
          dim {
            size: 400
          }
          dim {
            size: 1
          }
        }
      }
    }
  }
  attr {
    key: "container"
    value {
      s: ""
    }
  }
  attr {
    key: "dtype"
    value {
      type: DT_FLOAT
    }
  }
  attr {
    key: "shape"
    value {
      shape {
        dim {
          size: 400
        }
        dim {
          size: 1
        }
      }
    }
  }
  attr {
    key: "shared_name"
    value {
      s: ""
    }
  }
}
node {
  name: "oldvf/vf_output/kernel/Assign"
  op: "Assign"
  input: "oldvf/vf_output/kernel"
  input: "oldvf/vf_output/kernel/Initializer/random_uniform"
  device: "/job:ps/task:0"
  attr {
    key: "T"
    value {
      type: DT_FLOAT
    }
  }
  attr {
    key: "_class"
    value {
      list {
        s: "loc:@oldvf/vf_output/kernel"
      }
    }
  }
  attr {
    key: "_output_shapes"
    value {
      list {
        shape {
          dim {
            size: 400
          }
          dim {
            size: 1
          }
        }
      }
    }
  }
  attr {
    key: "use_locking"
    value {
      b: true
    }
  }
  attr {
    key: "validate_shape"
    value {
      b: true
    }
  }
}
node {
  name: "oldvf/vf_output/kernel/read"
  op: "Identity"
  input: "oldvf/vf_output/kernel"
  device: "/job:ps/task:0"
  attr {
    key: "T"
    value {
      type: DT_FLOAT
    }
  }
  attr {
    key: "_class"
    value {
      list {
        s: "loc:@oldvf/vf_output/kernel"
      }
    }
  }
  attr {
    key: "_output_shapes"
    value {
      list {
        shape {
          dim {
            size: 400
          }
          dim {
            size: 1
          }
        }
      }
    }
  }
}
node {
  name: "oldvf/vf_output/kernel/Regularizer/l2_regularizer/scale"
  op: "Const"
  device: "/job:worker/task:0"
  attr {
    key: "_output_shapes"
    value {
      list {
        shape {
        }
      }
    }
  }
  attr {
    key: "dtype"
    value {
      type: DT_FLOAT
    }
  }
  attr {
    key: "value"
    value {
      tensor {
        dtype: DT_FLOAT
        tensor_shape {
        }
        float_val: 0.0010000000474974513
      }
    }
  }
}
node {
  name: "oldvf/vf_output/kernel/Regularizer/l2_regularizer/L2Loss"
  op: "L2Loss"
  input: "oldvf/vf_output/kernel/read"
  device: "/job:worker/task:0"
  attr {
    key: "T"
    value {
      type: DT_FLOAT
    }
  }
  attr {
    key: "_output_shapes"
    value {
      list {
        shape {
        }
      }
    }
  }
}
node {
  name: "oldvf/vf_output/kernel/Regularizer/l2_regularizer"
  op: "Mul"
  input: "oldvf/vf_output/kernel/Regularizer/l2_regularizer/scale"
  input: "oldvf/vf_output/kernel/Regularizer/l2_regularizer/L2Loss"
  device: "/job:worker/task:0"
  attr {
    key: "T"
    value {
      type: DT_FLOAT
    }
  }
  attr {
    key: "_output_shapes"
    value {
      list {
        shape {
        }
      }
    }
  }
}
node {
  name: "oldvf/vf_output/bias/Initializer/zeros"
  op: "Const"
  attr {
    key: "_class"
    value {
      list {
        s: "loc:@oldvf/vf_output/bias"
      }
    }
  }
  attr {
    key: "_output_shapes"
    value {
      list {
        shape {
          dim {
            size: 1
          }
        }
      }
    }
  }
  attr {
    key: "dtype"
    value {
      type: DT_FLOAT
    }
  }
  attr {
    key: "value"
    value {
      tensor {
        dtype: DT_FLOAT
        tensor_shape {
          dim {
            size: 1
          }
        }
        float_val: 0.0
      }
    }
  }
}
node {
  name: "oldvf/vf_output/bias"
  op: "VariableV2"
  device: "/job:ps/task:0"
  attr {
    key: "_class"
    value {
      list {
        s: "loc:@oldvf/vf_output/bias"
      }
    }
  }
  attr {
    key: "_output_shapes"
    value {
      list {
        shape {
          dim {
            size: 1
          }
        }
      }
    }
  }
  attr {
    key: "container"
    value {
      s: ""
    }
  }
  attr {
    key: "dtype"
    value {
      type: DT_FLOAT
    }
  }
  attr {
    key: "shape"
    value {
      shape {
        dim {
          size: 1
        }
      }
    }
  }
  attr {
    key: "shared_name"
    value {
      s: ""
    }
  }
}
node {
  name: "oldvf/vf_output/bias/Assign"
  op: "Assign"
  input: "oldvf/vf_output/bias"
  input: "oldvf/vf_output/bias/Initializer/zeros"
  device: "/job:ps/task:0"
  attr {
    key: "T"
    value {
      type: DT_FLOAT
    }
  }
  attr {
    key: "_class"
    value {
      list {
        s: "loc:@oldvf/vf_output/bias"
      }
    }
  }
  attr {
    key: "_output_shapes"
    value {
      list {
        shape {
          dim {
            size: 1
          }
        }
      }
    }
  }
  attr {
    key: "use_locking"
    value {
      b: true
    }
  }
  attr {
    key: "validate_shape"
    value {
      b: true
    }
  }
}
node {
  name: "oldvf/vf_output/bias/read"
  op: "Identity"
  input: "oldvf/vf_output/bias"
  device: "/job:ps/task:0"
  attr {
    key: "T"
    value {
      type: DT_FLOAT
    }
  }
  attr {
    key: "_class"
    value {
      list {
        s: "loc:@oldvf/vf_output/bias"
      }
    }
  }
  attr {
    key: "_output_shapes"
    value {
      list {
        shape {
          dim {
            size: 1
          }
        }
      }
    }
  }
}
node {
  name: "oldvf/vf_output/MatMul"
  op: "MatMul"
  input: "oldvf/vf_l2/Relu"
  input: "oldvf/vf_output/kernel/read"
  device: "/job:worker/task:0"
  attr {
    key: "T"
    value {
      type: DT_FLOAT
    }
  }
  attr {
    key: "_output_shapes"
    value {
      list {
        shape {
          dim {
            size: -1
          }
          dim {
            size: 1
          }
        }
      }
    }
  }
  attr {
    key: "transpose_a"
    value {
      b: false
    }
  }
  attr {
    key: "transpose_b"
    value {
      b: false
    }
  }
}
node {
  name: "oldvf/vf_output/BiasAdd"
  op: "BiasAdd"
  input: "oldvf/vf_output/MatMul"
  input: "oldvf/vf_output/bias/read"
  device: "/job:worker/task:0"
  attr {
    key: "T"
    value {
      type: DT_FLOAT
    }
  }
  attr {
    key: "_output_shapes"
    value {
      list {
        shape {
          dim {
            size: -1
          }
          dim {
            size: 1
          }
        }
      }
    }
  }
  attr {
    key: "data_format"
    value {
      s: "NHWC"
    }
  }
}
node {
  name: "vf/vf_l1/kernel/Initializer/random_uniform/shape"
  op: "Const"
  attr {
    key: "_class"
    value {
      list {
        s: "loc:@vf/vf_l1/kernel"
      }
    }
  }
  attr {
    key: "_output_shapes"
    value {
      list {
        shape {
          dim {
            size: 2
          }
        }
      }
    }
  }
  attr {
    key: "dtype"
    value {
      type: DT_INT32
    }
  }
  attr {
    key: "value"
    value {
      tensor {
        dtype: DT_INT32
        tensor_shape {
          dim {
            size: 2
          }
        }
        tensor_content: "\003\000\000\000\220\001\000\000"
      }
    }
  }
}
node {
  name: "vf/vf_l1/kernel/Initializer/random_uniform/min"
  op: "Const"
  attr {
    key: "_class"
    value {
      list {
        s: "loc:@vf/vf_l1/kernel"
      }
    }
  }
  attr {
    key: "_output_shapes"
    value {
      list {
        shape {
        }
      }
    }
  }
  attr {
    key: "dtype"
    value {
      type: DT_FLOAT
    }
  }
  attr {
    key: "value"
    value {
      tensor {
        dtype: DT_FLOAT
        tensor_shape {
        }
        float_val: -0.12201777845621109
      }
    }
  }
}
node {
  name: "vf/vf_l1/kernel/Initializer/random_uniform/max"
  op: "Const"
  attr {
    key: "_class"
    value {
      list {
        s: "loc:@vf/vf_l1/kernel"
      }
    }
  }
  attr {
    key: "_output_shapes"
    value {
      list {
        shape {
        }
      }
    }
  }
  attr {
    key: "dtype"
    value {
      type: DT_FLOAT
    }
  }
  attr {
    key: "value"
    value {
      tensor {
        dtype: DT_FLOAT
        tensor_shape {
        }
        float_val: 0.12201777845621109
      }
    }
  }
}
node {
  name: "vf/vf_l1/kernel/Initializer/random_uniform/RandomUniform"
  op: "RandomUniform"
  input: "vf/vf_l1/kernel/Initializer/random_uniform/shape"
  attr {
    key: "T"
    value {
      type: DT_INT32
    }
  }
  attr {
    key: "_class"
    value {
      list {
        s: "loc:@vf/vf_l1/kernel"
      }
    }
  }
  attr {
    key: "_output_shapes"
    value {
      list {
        shape {
          dim {
            size: 3
          }
          dim {
            size: 400
          }
        }
      }
    }
  }
  attr {
    key: "dtype"
    value {
      type: DT_FLOAT
    }
  }
  attr {
    key: "seed"
    value {
      i: 0
    }
  }
  attr {
    key: "seed2"
    value {
      i: 0
    }
  }
}
node {
  name: "vf/vf_l1/kernel/Initializer/random_uniform/sub"
  op: "Sub"
  input: "vf/vf_l1/kernel/Initializer/random_uniform/max"
  input: "vf/vf_l1/kernel/Initializer/random_uniform/min"
  attr {
    key: "T"
    value {
      type: DT_FLOAT
    }
  }
  attr {
    key: "_class"
    value {
      list {
        s: "loc:@vf/vf_l1/kernel"
      }
    }
  }
  attr {
    key: "_output_shapes"
    value {
      list {
        shape {
        }
      }
    }
  }
}
node {
  name: "vf/vf_l1/kernel/Initializer/random_uniform/mul"
  op: "Mul"
  input: "vf/vf_l1/kernel/Initializer/random_uniform/RandomUniform"
  input: "vf/vf_l1/kernel/Initializer/random_uniform/sub"
  attr {
    key: "T"
    value {
      type: DT_FLOAT
    }
  }
  attr {
    key: "_class"
    value {
      list {
        s: "loc:@vf/vf_l1/kernel"
      }
    }
  }
  attr {
    key: "_output_shapes"
    value {
      list {
        shape {
          dim {
            size: 3
          }
          dim {
            size: 400
          }
        }
      }
    }
  }
}
node {
  name: "vf/vf_l1/kernel/Initializer/random_uniform"
  op: "Add"
  input: "vf/vf_l1/kernel/Initializer/random_uniform/mul"
  input: "vf/vf_l1/kernel/Initializer/random_uniform/min"
  attr {
    key: "T"
    value {
      type: DT_FLOAT
    }
  }
  attr {
    key: "_class"
    value {
      list {
        s: "loc:@vf/vf_l1/kernel"
      }
    }
  }
  attr {
    key: "_output_shapes"
    value {
      list {
        shape {
          dim {
            size: 3
          }
          dim {
            size: 400
          }
        }
      }
    }
  }
}
node {
  name: "vf/vf_l1/kernel"
  op: "VariableV2"
  device: "/job:ps/task:0"
  attr {
    key: "_class"
    value {
      list {
        s: "loc:@vf/vf_l1/kernel"
      }
    }
  }
  attr {
    key: "_output_shapes"
    value {
      list {
        shape {
          dim {
            size: 3
          }
          dim {
            size: 400
          }
        }
      }
    }
  }
  attr {
    key: "container"
    value {
      s: ""
    }
  }
  attr {
    key: "dtype"
    value {
      type: DT_FLOAT
    }
  }
  attr {
    key: "shape"
    value {
      shape {
        dim {
          size: 3
        }
        dim {
          size: 400
        }
      }
    }
  }
  attr {
    key: "shared_name"
    value {
      s: ""
    }
  }
}
node {
  name: "vf/vf_l1/kernel/Assign"
  op: "Assign"
  input: "vf/vf_l1/kernel"
  input: "vf/vf_l1/kernel/Initializer/random_uniform"
  device: "/job:ps/task:0"
  attr {
    key: "T"
    value {
      type: DT_FLOAT
    }
  }
  attr {
    key: "_class"
    value {
      list {
        s: "loc:@vf/vf_l1/kernel"
      }
    }
  }
  attr {
    key: "_output_shapes"
    value {
      list {
        shape {
          dim {
            size: 3
          }
          dim {
            size: 400
          }
        }
      }
    }
  }
  attr {
    key: "use_locking"
    value {
      b: true
    }
  }
  attr {
    key: "validate_shape"
    value {
      b: true
    }
  }
}
node {
  name: "vf/vf_l1/kernel/read"
  op: "Identity"
  input: "vf/vf_l1/kernel"
  device: "/job:ps/task:0"
  attr {
    key: "T"
    value {
      type: DT_FLOAT
    }
  }
  attr {
    key: "_class"
    value {
      list {
        s: "loc:@vf/vf_l1/kernel"
      }
    }
  }
  attr {
    key: "_output_shapes"
    value {
      list {
        shape {
          dim {
            size: 3
          }
          dim {
            size: 400
          }
        }
      }
    }
  }
}
node {
  name: "vf/vf_l1/kernel/Regularizer/l2_regularizer/scale"
  op: "Const"
  device: "/job:worker/task:0"
  attr {
    key: "_output_shapes"
    value {
      list {
        shape {
        }
      }
    }
  }
  attr {
    key: "dtype"
    value {
      type: DT_FLOAT
    }
  }
  attr {
    key: "value"
    value {
      tensor {
        dtype: DT_FLOAT
        tensor_shape {
        }
        float_val: 0.0010000000474974513
      }
    }
  }
}
node {
  name: "vf/vf_l1/kernel/Regularizer/l2_regularizer/L2Loss"
  op: "L2Loss"
  input: "vf/vf_l1/kernel/read"
  device: "/job:worker/task:0"
  attr {
    key: "T"
    value {
      type: DT_FLOAT
    }
  }
  attr {
    key: "_output_shapes"
    value {
      list {
        shape {
        }
      }
    }
  }
}
node {
  name: "vf/vf_l1/kernel/Regularizer/l2_regularizer"
  op: "Mul"
  input: "vf/vf_l1/kernel/Regularizer/l2_regularizer/scale"
  input: "vf/vf_l1/kernel/Regularizer/l2_regularizer/L2Loss"
  device: "/job:worker/task:0"
  attr {
    key: "T"
    value {
      type: DT_FLOAT
    }
  }
  attr {
    key: "_output_shapes"
    value {
      list {
        shape {
        }
      }
    }
  }
}
node {
  name: "vf/vf_l1/bias/Initializer/zeros"
  op: "Const"
  attr {
    key: "_class"
    value {
      list {
        s: "loc:@vf/vf_l1/bias"
      }
    }
  }
  attr {
    key: "_output_shapes"
    value {
      list {
        shape {
          dim {
            size: 400
          }
        }
      }
    }
  }
  attr {
    key: "dtype"
    value {
      type: DT_FLOAT
    }
  }
  attr {
    key: "value"
    value {
      tensor {
        dtype: DT_FLOAT
        tensor_shape {
          dim {
            size: 400
          }
        }
        float_val: 0.0
      }
    }
  }
}
node {
  name: "vf/vf_l1/bias"
  op: "VariableV2"
  device: "/job:ps/task:0"
  attr {
    key: "_class"
    value {
      list {
        s: "loc:@vf/vf_l1/bias"
      }
    }
  }
  attr {
    key: "_output_shapes"
    value {
      list {
        shape {
          dim {
            size: 400
          }
        }
      }
    }
  }
  attr {
    key: "container"
    value {
      s: ""
    }
  }
  attr {
    key: "dtype"
    value {
      type: DT_FLOAT
    }
  }
  attr {
    key: "shape"
    value {
      shape {
        dim {
          size: 400
        }
      }
    }
  }
  attr {
    key: "shared_name"
    value {
      s: ""
    }
  }
}
node {
  name: "vf/vf_l1/bias/Assign"
  op: "Assign"
  input: "vf/vf_l1/bias"
  input: "vf/vf_l1/bias/Initializer/zeros"
  device: "/job:ps/task:0"
  attr {
    key: "T"
    value {
      type: DT_FLOAT
    }
  }
  attr {
    key: "_class"
    value {
      list {
        s: "loc:@vf/vf_l1/bias"
      }
    }
  }
  attr {
    key: "_output_shapes"
    value {
      list {
        shape {
          dim {
            size: 400
          }
        }
      }
    }
  }
  attr {
    key: "use_locking"
    value {
      b: true
    }
  }
  attr {
    key: "validate_shape"
    value {
      b: true
    }
  }
}
node {
  name: "vf/vf_l1/bias/read"
  op: "Identity"
  input: "vf/vf_l1/bias"
  device: "/job:ps/task:0"
  attr {
    key: "T"
    value {
      type: DT_FLOAT
    }
  }
  attr {
    key: "_class"
    value {
      list {
        s: "loc:@vf/vf_l1/bias"
      }
    }
  }
  attr {
    key: "_output_shapes"
    value {
      list {
        shape {
          dim {
            size: 400
          }
        }
      }
    }
  }
}
node {
  name: "vf/vf_l1/MatMul"
  op: "MatMul"
  input: "IteratorGetNext:3"
  input: "vf/vf_l1/kernel/read"
  device: "/job:worker/task:0"
  attr {
    key: "T"
    value {
      type: DT_FLOAT
    }
  }
  attr {
    key: "_output_shapes"
    value {
      list {
        shape {
          dim {
            size: -1
          }
          dim {
            size: 400
          }
        }
      }
    }
  }
  attr {
    key: "transpose_a"
    value {
      b: false
    }
  }
  attr {
    key: "transpose_b"
    value {
      b: false
    }
  }
}
node {
  name: "vf/vf_l1/BiasAdd"
  op: "BiasAdd"
  input: "vf/vf_l1/MatMul"
  input: "vf/vf_l1/bias/read"
  device: "/job:worker/task:0"
  attr {
    key: "T"
    value {
      type: DT_FLOAT
    }
  }
  attr {
    key: "_output_shapes"
    value {
      list {
        shape {
          dim {
            size: -1
          }
          dim {
            size: 400
          }
        }
      }
    }
  }
  attr {
    key: "data_format"
    value {
      s: "NHWC"
    }
  }
}
node {
  name: "vf/vf_l1/Relu"
  op: "Relu"
  input: "vf/vf_l1/BiasAdd"
  device: "/job:worker/task:0"
  attr {
    key: "T"
    value {
      type: DT_FLOAT
    }
  }
  attr {
    key: "_output_shapes"
    value {
      list {
        shape {
          dim {
            size: -1
          }
          dim {
            size: 400
          }
        }
      }
    }
  }
}
node {
  name: "vf/vf_l2/kernel/Initializer/random_uniform/shape"
  op: "Const"
  attr {
    key: "_class"
    value {
      list {
        s: "loc:@vf/vf_l2/kernel"
      }
    }
  }
  attr {
    key: "_output_shapes"
    value {
      list {
        shape {
          dim {
            size: 2
          }
        }
      }
    }
  }
  attr {
    key: "dtype"
    value {
      type: DT_INT32
    }
  }
  attr {
    key: "value"
    value {
      tensor {
        dtype: DT_INT32
        tensor_shape {
          dim {
            size: 2
          }
        }
        tensor_content: "\220\001\000\000\220\001\000\000"
      }
    }
  }
}
node {
  name: "vf/vf_l2/kernel/Initializer/random_uniform/min"
  op: "Const"
  attr {
    key: "_class"
    value {
      list {
        s: "loc:@vf/vf_l2/kernel"
      }
    }
  }
  attr {
    key: "_output_shapes"
    value {
      list {
        shape {
        }
      }
    }
  }
  attr {
    key: "dtype"
    value {
      type: DT_FLOAT
    }
  }
  attr {
    key: "value"
    value {
      tensor {
        dtype: DT_FLOAT
        tensor_shape {
        }
        float_val: -0.08660253882408142
      }
    }
  }
}
node {
  name: "vf/vf_l2/kernel/Initializer/random_uniform/max"
  op: "Const"
  attr {
    key: "_class"
    value {
      list {
        s: "loc:@vf/vf_l2/kernel"
      }
    }
  }
  attr {
    key: "_output_shapes"
    value {
      list {
        shape {
        }
      }
    }
  }
  attr {
    key: "dtype"
    value {
      type: DT_FLOAT
    }
  }
  attr {
    key: "value"
    value {
      tensor {
        dtype: DT_FLOAT
        tensor_shape {
        }
        float_val: 0.08660253882408142
      }
    }
  }
}
node {
  name: "vf/vf_l2/kernel/Initializer/random_uniform/RandomUniform"
  op: "RandomUniform"
  input: "vf/vf_l2/kernel/Initializer/random_uniform/shape"
  attr {
    key: "T"
    value {
      type: DT_INT32
    }
  }
  attr {
    key: "_class"
    value {
      list {
        s: "loc:@vf/vf_l2/kernel"
      }
    }
  }
  attr {
    key: "_output_shapes"
    value {
      list {
        shape {
          dim {
            size: 400
          }
          dim {
            size: 400
          }
        }
      }
    }
  }
  attr {
    key: "dtype"
    value {
      type: DT_FLOAT
    }
  }
  attr {
    key: "seed"
    value {
      i: 0
    }
  }
  attr {
    key: "seed2"
    value {
      i: 0
    }
  }
}
node {
  name: "vf/vf_l2/kernel/Initializer/random_uniform/sub"
  op: "Sub"
  input: "vf/vf_l2/kernel/Initializer/random_uniform/max"
  input: "vf/vf_l2/kernel/Initializer/random_uniform/min"
  attr {
    key: "T"
    value {
      type: DT_FLOAT
    }
  }
  attr {
    key: "_class"
    value {
      list {
        s: "loc:@vf/vf_l2/kernel"
      }
    }
  }
  attr {
    key: "_output_shapes"
    value {
      list {
        shape {
        }
      }
    }
  }
}
node {
  name: "vf/vf_l2/kernel/Initializer/random_uniform/mul"
  op: "Mul"
  input: "vf/vf_l2/kernel/Initializer/random_uniform/RandomUniform"
  input: "vf/vf_l2/kernel/Initializer/random_uniform/sub"
  attr {
    key: "T"
    value {
      type: DT_FLOAT
    }
  }
  attr {
    key: "_class"
    value {
      list {
        s: "loc:@vf/vf_l2/kernel"
      }
    }
  }
  attr {
    key: "_output_shapes"
    value {
      list {
        shape {
          dim {
            size: 400
          }
          dim {
            size: 400
          }
        }
      }
    }
  }
}
node {
  name: "vf/vf_l2/kernel/Initializer/random_uniform"
  op: "Add"
  input: "vf/vf_l2/kernel/Initializer/random_uniform/mul"
  input: "vf/vf_l2/kernel/Initializer/random_uniform/min"
  attr {
    key: "T"
    value {
      type: DT_FLOAT
    }
  }
  attr {
    key: "_class"
    value {
      list {
        s: "loc:@vf/vf_l2/kernel"
      }
    }
  }
  attr {
    key: "_output_shapes"
    value {
      list {
        shape {
          dim {
            size: 400
          }
          dim {
            size: 400
          }
        }
      }
    }
  }
}
node {
  name: "vf/vf_l2/kernel"
  op: "VariableV2"
  device: "/job:ps/task:0"
  attr {
    key: "_class"
    value {
      list {
        s: "loc:@vf/vf_l2/kernel"
      }
    }
  }
  attr {
    key: "_output_shapes"
    value {
      list {
        shape {
          dim {
            size: 400
          }
          dim {
            size: 400
          }
        }
      }
    }
  }
  attr {
    key: "container"
    value {
      s: ""
    }
  }
  attr {
    key: "dtype"
    value {
      type: DT_FLOAT
    }
  }
  attr {
    key: "shape"
    value {
      shape {
        dim {
          size: 400
        }
        dim {
          size: 400
        }
      }
    }
  }
  attr {
    key: "shared_name"
    value {
      s: ""
    }
  }
}
node {
  name: "vf/vf_l2/kernel/Assign"
  op: "Assign"
  input: "vf/vf_l2/kernel"
  input: "vf/vf_l2/kernel/Initializer/random_uniform"
  device: "/job:ps/task:0"
  attr {
    key: "T"
    value {
      type: DT_FLOAT
    }
  }
  attr {
    key: "_class"
    value {
      list {
        s: "loc:@vf/vf_l2/kernel"
      }
    }
  }
  attr {
    key: "_output_shapes"
    value {
      list {
        shape {
          dim {
            size: 400
          }
          dim {
            size: 400
          }
        }
      }
    }
  }
  attr {
    key: "use_locking"
    value {
      b: true
    }
  }
  attr {
    key: "validate_shape"
    value {
      b: true
    }
  }
}
node {
  name: "vf/vf_l2/kernel/read"
  op: "Identity"
  input: "vf/vf_l2/kernel"
  device: "/job:ps/task:0"
  attr {
    key: "T"
    value {
      type: DT_FLOAT
    }
  }
  attr {
    key: "_class"
    value {
      list {
        s: "loc:@vf/vf_l2/kernel"
      }
    }
  }
  attr {
    key: "_output_shapes"
    value {
      list {
        shape {
          dim {
            size: 400
          }
          dim {
            size: 400
          }
        }
      }
    }
  }
}
node {
  name: "vf/vf_l2/kernel/Regularizer/l2_regularizer/scale"
  op: "Const"
  device: "/job:worker/task:0"
  attr {
    key: "_output_shapes"
    value {
      list {
        shape {
        }
      }
    }
  }
  attr {
    key: "dtype"
    value {
      type: DT_FLOAT
    }
  }
  attr {
    key: "value"
    value {
      tensor {
        dtype: DT_FLOAT
        tensor_shape {
        }
        float_val: 0.0010000000474974513
      }
    }
  }
}
node {
  name: "vf/vf_l2/kernel/Regularizer/l2_regularizer/L2Loss"
  op: "L2Loss"
  input: "vf/vf_l2/kernel/read"
  device: "/job:worker/task:0"
  attr {
    key: "T"
    value {
      type: DT_FLOAT
    }
  }
  attr {
    key: "_output_shapes"
    value {
      list {
        shape {
        }
      }
    }
  }
}
node {
  name: "vf/vf_l2/kernel/Regularizer/l2_regularizer"
  op: "Mul"
  input: "vf/vf_l2/kernel/Regularizer/l2_regularizer/scale"
  input: "vf/vf_l2/kernel/Regularizer/l2_regularizer/L2Loss"
  device: "/job:worker/task:0"
  attr {
    key: "T"
    value {
      type: DT_FLOAT
    }
  }
  attr {
    key: "_output_shapes"
    value {
      list {
        shape {
        }
      }
    }
  }
}
node {
  name: "vf/vf_l2/bias/Initializer/zeros"
  op: "Const"
  attr {
    key: "_class"
    value {
      list {
        s: "loc:@vf/vf_l2/bias"
      }
    }
  }
  attr {
    key: "_output_shapes"
    value {
      list {
        shape {
          dim {
            size: 400
          }
        }
      }
    }
  }
  attr {
    key: "dtype"
    value {
      type: DT_FLOAT
    }
  }
  attr {
    key: "value"
    value {
      tensor {
        dtype: DT_FLOAT
        tensor_shape {
          dim {
            size: 400
          }
        }
        float_val: 0.0
      }
    }
  }
}
node {
  name: "vf/vf_l2/bias"
  op: "VariableV2"
  device: "/job:ps/task:0"
  attr {
    key: "_class"
    value {
      list {
        s: "loc:@vf/vf_l2/bias"
      }
    }
  }
  attr {
    key: "_output_shapes"
    value {
      list {
        shape {
          dim {
            size: 400
          }
        }
      }
    }
  }
  attr {
    key: "container"
    value {
      s: ""
    }
  }
  attr {
    key: "dtype"
    value {
      type: DT_FLOAT
    }
  }
  attr {
    key: "shape"
    value {
      shape {
        dim {
          size: 400
        }
      }
    }
  }
  attr {
    key: "shared_name"
    value {
      s: ""
    }
  }
}
node {
  name: "vf/vf_l2/bias/Assign"
  op: "Assign"
  input: "vf/vf_l2/bias"
  input: "vf/vf_l2/bias/Initializer/zeros"
  device: "/job:ps/task:0"
  attr {
    key: "T"
    value {
      type: DT_FLOAT
    }
  }
  attr {
    key: "_class"
    value {
      list {
        s: "loc:@vf/vf_l2/bias"
      }
    }
  }
  attr {
    key: "_output_shapes"
    value {
      list {
        shape {
          dim {
            size: 400
          }
        }
      }
    }
  }
  attr {
    key: "use_locking"
    value {
      b: true
    }
  }
  attr {
    key: "validate_shape"
    value {
      b: true
    }
  }
}
node {
  name: "vf/vf_l2/bias/read"
  op: "Identity"
  input: "vf/vf_l2/bias"
  device: "/job:ps/task:0"
  attr {
    key: "T"
    value {
      type: DT_FLOAT
    }
  }
  attr {
    key: "_class"
    value {
      list {
        s: "loc:@vf/vf_l2/bias"
      }
    }
  }
  attr {
    key: "_output_shapes"
    value {
      list {
        shape {
          dim {
            size: 400
          }
        }
      }
    }
  }
}
node {
  name: "vf/vf_l2/MatMul"
  op: "MatMul"
  input: "vf/vf_l1/Relu"
  input: "vf/vf_l2/kernel/read"
…
        string_val: ""
        string_val: ""
        string_val: ""
        string_val: ""
        string_val: ""
        string_val: ""
        string_val: ""
      }
    }
  }
}
node {
  name: "save/SaveV2"
  op: "SaveV2"
  input: "save/ShardedFilename"
  input: "save/SaveV2/tensor_names"
  input: "save/SaveV2/shape_and_slices"
  input: "beta1_power"
  input: "beta2_power"
  input: "global_step"
  input: "oldpi/pi_l1/bias"
  input: "oldpi/pi_l1/kernel"
  input: "oldpi/pi_l2/bias"
  input: "oldpi/pi_l2/kernel"
  input: "oldpi/pi_mu/bias"
  input: "oldpi/pi_mu/kernel"
  input: "oldpi/pi_sigma"
  input: "oldvf/vf_l1/bias"
  input: "oldvf/vf_l1/kernel"
  input: "oldvf/vf_l2/bias"
  input: "oldvf/vf_l2/kernel"
  input: "oldvf/vf_output/bias"
  input: "oldvf/vf_output/kernel"
  input: "pi/pi_l1/bias"
  input: "pi/pi_l1/kernel"
  input: "pi/pi_l2/bias"
  input: "pi/pi_l2/kernel"
  input: "pi/pi_mu/bias"
  input: "pi/pi_mu/kernel"
  input: "pi/pi_sigma"
  input: "train/pi/pi_l1/bias/Adam"
  input: "train/pi/pi_l1/bias/Adam_1"
  input: "train/pi/pi_l1/kernel/Adam"
  input: "train/pi/pi_l1/kernel/Adam_1"
  input: "train/pi/pi_l2/bias/Adam"
  input: "train/pi/pi_l2/bias/Adam_1"
  input: "train/pi/pi_l2/kernel/Adam"
  input: "train/pi/pi_l2/kernel/Adam_1"
  input: "train/pi/pi_mu/bias/Adam"
  input: "train/pi/pi_mu/bias/Adam_1"
  input: "train/pi/pi_mu/kernel/Adam"
  input: "train/pi/pi_mu/kernel/Adam_1"
  input: "train/pi/pi_sigma/Adam"
  input: "train/pi/pi_sigma/Adam_1"
  input: "train/vf/vf_l1/bias/Adam"
  input: "train/vf/vf_l1/bias/Adam_1"
  input: "train/vf/vf_l1/kernel/Adam"
  input: "train/vf/vf_l1/kernel/Adam_1"
  input: "train/vf/vf_l2/bias/Adam"
  input: "train/vf/vf_l2/bias/Adam_1"
  input: "train/vf/vf_l2/kernel/Adam"
  input: "train/vf/vf_l2/kernel/Adam_1"
  input: "train/vf/vf_output/bias/Adam"
  input: "train/vf/vf_output/bias/Adam_1"
  input: "train/vf/vf_output/kernel/Adam"
  input: "train/vf/vf_output/kernel/Adam_1"
  input: "vf/vf_l1/bias"
  input: "vf/vf_l1/kernel"
  input: "vf/vf_l2/bias"
  input: "vf/vf_l2/kernel"
  input: "vf/vf_output/bias"
  input: "vf/vf_output/kernel"
  device: "/job:ps/task:0/device:CPU:0"
  attr {
    key: "dtypes"
    value {
      list {
        type: DT_FLOAT
        type: DT_FLOAT
        type: DT_INT64
        type: DT_FLOAT
        type: DT_FLOAT
        type: DT_FLOAT
        type: DT_FLOAT
        type: DT_FLOAT
        type: DT_FLOAT
        type: DT_FLOAT
        type: DT_FLOAT
        type: DT_FLOAT
        type: DT_FLOAT
        type: DT_FLOAT
        type: DT_FLOAT
        type: DT_FLOAT
        type: DT_FLOAT
        type: DT_FLOAT
        type: DT_FLOAT
        type: DT_FLOAT
        type: DT_FLOAT
        type: DT_FLOAT
        type: DT_FLOAT
        type: DT_FLOAT
        type: DT_FLOAT
        type: DT_FLOAT
        type: DT_FLOAT
        type: DT_FLOAT
        type: DT_FLOAT
        type: DT_FLOAT
        type: DT_FLOAT
        type: DT_FLOAT
        type: DT_FLOAT
        type: DT_FLOAT
        type: DT_FLOAT
        type: DT_FLOAT
        type: DT_FLOAT
        type: DT_FLOAT
        type: DT_FLOAT
        type: DT_FLOAT
        type: DT_FLOAT
        type: DT_FLOAT
        type: DT_FLOAT
        type: DT_FLOAT
        type: DT_FLOAT
        type: DT_FLOAT
        type: DT_FLOAT
        type: DT_FLOAT
        type: DT_FLOAT
        type: DT_FLOAT
        type: DT_FLOAT
        type: DT_FLOAT
        type: DT_FLOAT
        type: DT_FLOAT
        type: DT_FLOAT
      }
    }
  }
}
node {
  name: "save/control_dependency"
  op: "Identity"
  input: "save/ShardedFilename"
  input: "^save/SaveV2"
  device: "/job:ps/task:0/device:CPU:0"
  attr {
    key: "T"
    value {
      type: DT_STRING
    }
  }
  attr {
    key: "_class"
    value {
      list {
        s: "loc:@save/ShardedFilename"
      }
    }
  }
  attr {
    key: "_output_shapes"
    value {
      list {
        shape {
        }
      }
    }
  }
}
node {
  name: "save/MergeV2Checkpoints/checkpoint_prefixes"
  op: "Pack"
  input: "save/ShardedFilename"
  input: "^save/control_dependency"
  device: "/job:ps/task:0/device:CPU:0"
  attr {
    key: "N"
    value {
      i: 1
    }
  }
  attr {
    key: "T"
    value {
      type: DT_STRING
    }
  }
  attr {
    key: "_output_shapes"
    value {
      list {
        shape {
          dim {
            size: 1
          }
        }
      }
    }
  }
  attr {
    key: "axis"
    value {
      i: 0
    }
  }
}
node {
  name: "save/MergeV2Checkpoints"
  op: "MergeV2Checkpoints"
  input: "save/MergeV2Checkpoints/checkpoint_prefixes"
  input: "save/Const"
  device: "/job:ps/task:0/device:CPU:0"
  attr {
    key: "delete_old_dirs"
    value {
      b: true
    }
  }
}
node {
  name: "save/Identity"
  op: "Identity"
  input: "save/Const"
  input: "^save/MergeV2Checkpoints"
  input: "^save/control_dependency"
  device: "/job:ps/task:0/device:CPU:0"
  attr {
    key: "T"
    value {
      type: DT_STRING
    }
  }
  attr {
    key: "_output_shapes"
    value {
      list {
        shape {
        }
      }
    }
  }
}
node {
  name: "save/RestoreV2/tensor_names"
  op: "Const"
  device: "/job:ps/task:0/device:CPU:0"
  attr {
    key: "_output_shapes"
    value {
      list {
        shape {
          dim {
            size: 55
          }
        }
      }
    }
  }
  attr {
    key: "dtype"
    value {
      type: DT_STRING
    }
  }
  attr {
    key: "value"
    value {
      tensor {
        dtype: DT_STRING
        tensor_shape {
          dim {
            size: 55
          }
        }
        string_val: "beta1_power"
        string_val: "beta2_power"
        string_val: "global_step"
        string_val: "oldpi/pi_l1/bias"
        string_val: "oldpi/pi_l1/kernel"
        string_val: "oldpi/pi_l2/bias"
        string_val: "oldpi/pi_l2/kernel"
        string_val: "oldpi/pi_mu/bias"
        string_val: "oldpi/pi_mu/kernel"
        string_val: "oldpi/pi_sigma"
        string_val: "oldvf/vf_l1/bias"
        string_val: "oldvf/vf_l1/kernel"
        string_val: "oldvf/vf_l2/bias"
        string_val: "oldvf/vf_l2/kernel"
        string_val: "oldvf/vf_output/bias"
        string_val: "oldvf/vf_output/kernel"
        string_val: "pi/pi_l1/bias"
        string_val: "pi/pi_l1/kernel"
        string_val: "pi/pi_l2/bias"
        string_val: "pi/pi_l2/kernel"
        string_val: "pi/pi_mu/bias"
        string_val: "pi/pi_mu/kernel"
        string_val: "pi/pi_sigma"
        string_val: "train/pi/pi_l1/bias/Adam"
        string_val: "train/pi/pi_l1/bias/Adam_1"
        string_val: "train/pi/pi_l1/kernel/Adam"
        string_val: "train/pi/pi_l1/kernel/Adam_1"
        string_val: "train/pi/pi_l2/bias/Adam"
        string_val: "train/pi/pi_l2/bias/Adam_1"
        string_val: "train/pi/pi_l2/kernel/Adam"
        string_val: "train/pi/pi_l2/kernel/Adam_1"
        string_val: "train/pi/pi_mu/bias/Adam"
        string_val: "train/pi/pi_mu/bias/Adam_1"
        string_val: "train/pi/pi_mu/kernel/Adam"
        string_val: "train/pi/pi_mu/kernel/Adam_1"
        string_val: "train/pi/pi_sigma/Adam"
        string_val: "train/pi/pi_sigma/Adam_1"
        string_val: "train/vf/vf_l1/bias/Adam"
        string_val: "train/vf/vf_l1/bias/Adam_1"
        string_val: "train/vf/vf_l1/kernel/Adam"
        string_val: "train/vf/vf_l1/kernel/Adam_1"
        string_val: "train/vf/vf_l2/bias/Adam"
        string_val: "train/vf/vf_l2/bias/Adam_1"
        string_val: "train/vf/vf_l2/kernel/Adam"
        string_val: "train/vf/vf_l2/kernel/Adam_1"
        string_val: "train/vf/vf_output/bias/Adam"
        string_val: "train/vf/vf_output/bias/Adam_1"
        string_val: "train/vf/vf_output/kernel/Adam"
        string_val: "train/vf/vf_output/kernel/Adam_1"
        string_val: "vf/vf_l1/bias"
        string_val: "vf/vf_l1/kernel"
        string_val: "vf/vf_l2/bias"
        string_val: "vf/vf_l2/kernel"
        string_val: "vf/vf_output/bias"
        string_val: "vf/vf_output/kernel"
      }
    }
  }
}
node {
  name: "save/RestoreV2/shape_and_slices"
  op: "Const"
  device: "/job:ps/task:0/device:CPU:0"
  attr {
    key: "_output_shapes"
    value {
      list {
        shape {
          dim {
            size: 55
          }
        }
      }
    }
  }
  attr {
    key: "dtype"
    value {
      type: DT_STRING
    }
  }
  attr {
    key: "value"
    value {
      tensor {
        dtype: DT_STRING
        tensor_shape {
          dim {
            size: 55
          }
        }
        string_val: ""
        string_val: ""
        string_val: ""
        string_val: ""
        string_val: ""
        string_val: ""
        string_val: ""
        string_val: ""
        string_val: ""
        string_val: ""
        string_val: ""
        string_val: ""
        string_val: ""
        string_val: ""
        string_val: ""
        string_val: ""
        string_val: ""
        string_val: ""
        string_val: ""
        string_val: ""
        string_val: ""
        string_val: ""
        string_val: ""
        string_val: ""
        string_val: ""
        string_val: ""
        string_val: ""
        string_val: ""
        string_val: ""
        string_val: ""
        string_val: ""
        string_val: ""
        string_val: ""
        string_val: ""
        string_val: ""
        string_val: ""
        string_val: ""
        string_val: ""
        string_val: ""
        string_val: ""
        string_val: ""
        string_val: ""
        string_val: ""
        string_val: ""
        string_val: ""
        string_val: ""
        string_val: ""
        string_val: ""
        string_val: ""
        string_val: ""
        string_val: ""
        string_val: ""
        string_val: ""
        string_val: ""
        string_val: ""
      }
    }
  }
}
node {
  name: "save/RestoreV2"
  op: "RestoreV2"
  input: "save/Const"
  input: "save/RestoreV2/tensor_names"
  input: "save/RestoreV2/shape_and_slices"
  device: "/job:ps/task:0/device:CPU:0"
  attr {
    key: "_output_shapes"
    value {
      list {
        shape {
          unknown_rank: true
        }
        shape {
          unknown_rank: true
        }
        shape {
          unknown_rank: true
        }
        shape {
          unknown_rank: true
        }
        shape {
          unknown_rank: true
        }
        shape {
          unknown_rank: true
        }
        shape {
          unknown_rank: true
        }
        shape {
          unknown_rank: true
        }
        shape {
          unknown_rank: true
        }
        shape {
          unknown_rank: true
        }
        shape {
          unknown_rank: true
        }
        shape {
          unknown_rank: true
        }
        shape {
          unknown_rank: true
        }
        shape {
          unknown_rank: true
        }
        shape {
          unknown_rank: true
        }
        shape {
          unknown_rank: true
        }
        shape {
          unknown_rank: true
        }
        shape {
          unknown_rank: true
        }
        shape {
          unknown_rank: true
        }
        shape {
          unknown_rank: true
        }
        shape {
          unknown_rank: true
        }
        shape {
          unknown_rank: true
        }
        shape {
          unknown_rank: true
        }
        shape {
          unknown_rank: true
        }
        shape {
          unknown_rank: true
        }
        shape {
          unknown_rank: true
        }
        shape {
          unknown_rank: true
        }
        shape {
          unknown_rank: true
        }
        shape {
          unknown_rank: true
        }
        shape {
          unknown_rank: true
        }
        shape {
          unknown_rank: true
        }
        shape {
          unknown_rank: true
        }
        shape {
          unknown_rank: true
        }
        shape {
          unknown_rank: true
        }
        shape {
          unknown_rank: true
        }
        shape {
          unknown_rank: true
        }
        shape {
          unknown_rank: true
        }
        shape {
          unknown_rank: true
        }
        shape {
          unknown_rank: true
        }
        shape {
          unknown_rank: true
        }
        shape {
          unknown_rank: true
        }
        shape {
          unknown_rank: true
        }
        shape {
          unknown_rank: true
        }
        shape {
          unknown_rank: true
        }
        shape {
          unknown_rank: true
        }
        shape {
          unknown_rank: true
        }
        shape {
          unknown_rank: true
        }
        shape {
          unknown_rank: true
        }
        shape {
          unknown_rank: true
        }
        shape {
          unknown_rank: true
        }
        shape {
          unknown_rank: true
        }
        shape {
          unknown_rank: true
        }
        shape {
          unknown_rank: true
        }
        shape {
          unknown_rank: true
        }
        shape {
          unknown_rank: true
        }
      }
    }
  }
  attr {
    key: "dtypes"
    value {
      list {
        type: DT_FLOAT
        type: DT_FLOAT
        type: DT_INT64
        type: DT_FLOAT
        type: DT_FLOAT
        type: DT_FLOAT
        type: DT_FLOAT
        type: DT_FLOAT
        type: DT_FLOAT
        type: DT_FLOAT
        type: DT_FLOAT
        type: DT_FLOAT
        type: DT_FLOAT
        type: DT_FLOAT
        type: DT_FLOAT
        type: DT_FLOAT
        type: DT_FLOAT
        type: DT_FLOAT
        type: DT_FLOAT
        type: DT_FLOAT
        type: DT_FLOAT
        type: DT_FLOAT
        type: DT_FLOAT
        type: DT_FLOAT
        type: DT_FLOAT
        type: DT_FLOAT
        type: DT_FLOAT
        type: DT_FLOAT
        type: DT_FLOAT
        type: DT_FLOAT
        type: DT_FLOAT
        type: DT_FLOAT
        type: DT_FLOAT
        type: DT_FLOAT
        type: DT_FLOAT
        type: DT_FLOAT
        type: DT_FLOAT
        type: DT_FLOAT
        type: DT_FLOAT
        type: DT_FLOAT
        type: DT_FLOAT
        type: DT_FLOAT
        type: DT_FLOAT
        type: DT_FLOAT
        type: DT_FLOAT
        type: DT_FLOAT
        type: DT_FLOAT
        type: DT_FLOAT
        type: DT_FLOAT
        type: DT_FLOAT
        type: DT_FLOAT
        type: DT_FLOAT
        type: DT_FLOAT
        type: DT_FLOAT
        type: DT_FLOAT
      }
    }
  }
}
node {
  name: "save/Assign"
  op: "Assign"
  input: "beta1_power"
  input: "save/RestoreV2"
  device: "/job:ps/task:0"
  attr {
    key: "T"
    value {
      type: DT_FLOAT
    }
  }
  attr {
    key: "_class"
    value {
      list {
        s: "loc:@pi/pi_l1/bias"
      }
    }
  }
  attr {
    key: "_output_shapes"
    value {
      list {
        shape {
        }
      }
    }
  }
  attr {
    key: "use_locking"
    value {
      b: true
    }
  }
  attr {
    key: "validate_shape"
    value {
      b: true
    }
  }
}
node {
  name: "save/Assign_1"
  op: "Assign"
  input: "beta2_power"
  input: "save/RestoreV2:1"
  device: "/job:ps/task:0"
  attr {
    key: "T"
    value {
      type: DT_FLOAT
    }
  }
  attr {
    key: "_class"
    value {
      list {
        s: "loc:@pi/pi_l1/bias"
      }
    }
  }
  attr {
    key: "_output_shapes"
    value {
      list {
        shape {
        }
      }
    }
  }
  attr {
    key: "use_locking"
    value {
      b: true
    }
  }
  attr {
    key: "validate_shape"
    value {
      b: true
    }
  }
}
node {
  name: "save/Assign_2"
  op: "Assign"
  input: "global_step"
  input: "save/RestoreV2:2"
  device: "/job:ps/task:0"
  attr {
    key: "T"
    value {
      type: DT_INT64
    }
  }
  attr {
    key: "_class"
    value {
      list {
        s: "loc:@global_step"
      }
    }
  }
  attr {
    key: "_output_shapes"
    value {
      list {
        shape {
        }
      }
    }
  }
  attr {
    key: "use_locking"
    value {
      b: true
    }
  }
  attr {
    key: "validate_shape"
    value {
      b: true
    }
  }
}
node {
  name: "save/Assign_3"
  op: "Assign"
  input: "oldpi/pi_l1/bias"
  input: "save/RestoreV2:3"
  device: "/job:ps/task:0"
  attr {
    key: "T"
    value {
      type: DT_FLOAT
    }
  }
  attr {
    key: "_class"
    value {
      list {
        s: "loc:@oldpi/pi_l1/bias"
      }
    }
  }
  attr {
    key: "_output_shapes"
    value {
      list {
        shape {
          dim {
            size: 400
          }
        }
      }
    }
  }
  attr {
    key: "use_locking"
    value {
      b: true
    }
  }
  attr {
    key: "validate_shape"
    value {
      b: true
    }
  }
}
node {
  name: "save/Assign_4"
  op: "Assign"
  input: "oldpi/pi_l1/kernel"
  input: "save/RestoreV2:4"
  device: "/job:ps/task:0"
  attr {
    key: "T"
    value {
      type: DT_FLOAT
    }
  }
  attr {
    key: "_class"
    value {
      list {
        s: "loc:@oldpi/pi_l1/kernel"
      }
    }
  }
  attr {
    key: "_output_shapes"
    value {
      list {
        shape {
          dim {
            size: 3
          }
          dim {
            size: 400
          }
        }
      }
    }
  }
  attr {
    key: "use_locking"
    value {
      b: true
    }
  }
  attr {
    key: "validate_shape"
    value {
      b: true
    }
  }
}
node {
  name: "save/Assign_5"
  op: "Assign"
  input: "oldpi/pi_l2/bias"
  input: "save/RestoreV2:5"
  device: "/job:ps/task:0"
  attr {
    key: "T"
    value {
      type: DT_FLOAT
    }
  }
  attr {
    key: "_class"
    value {
      list {
        s: "loc:@oldpi/pi_l2/bias"
      }
    }
  }
  attr {
    key: "_output_shapes"
    value {
      list {
        shape {
          dim {
            size: 400
          }
        }
      }
    }
  }
  attr {
    key: "use_locking"
    value {
      b: true
    }
  }
  attr {
    key: "validate_shape"
    value {
      b: true
    }
  }
}
node {
  name: "save/Assign_6"
  op: "Assign"
  input: "oldpi/pi_l2/kernel"
  input: "save/RestoreV2:6"
  device: "/job:ps/task:0"
  attr {
    key: "T"
    value {
      type: DT_FLOAT
    }
  }
  attr {
    key: "_class"
    value {
      list {
        s: "loc:@oldpi/pi_l2/kernel"
      }
    }
  }
  attr {
    key: "_output_shapes"
    value {
      list {
        shape {
          dim {
            size: 400
          }
          dim {
            size: 400
          }
        }
      }
    }
  }
  attr {
    key: "use_locking"
    value {
      b: true
    }
  }
  attr {
    key: "validate_shape"
    value {
      b: true
    }
  }
}
node {
  name: "save/Assign_7"
  op: "Assign"
  input: "oldpi/pi_mu/bias"
  input: "save/RestoreV2:7"
  device: "/job:ps/task:0"
  attr {
    key: "T"
    value {
      type: DT_FLOAT
    }
  }
  attr {
    key: "_class"
    value {
      list {
        s: "loc:@oldpi/pi_mu/bias"
      }
    }
  }
  attr {
    key: "_output_shapes"
    value {
      list {
        shape {
          dim {
            size: 1
          }
        }
      }
    }
  }
  attr {
    key: "use_locking"
    value {
      b: true
    }
  }
  attr {
    key: "validate_shape"
    value {
      b: true
    }
  }
}
node {
  name: "save/Assign_8"
  op: "Assign"
  input: "oldpi/pi_mu/kernel"
  input: "save/RestoreV2:8"
  device: "/job:ps/task:0"
  attr {
    key: "T"
    value {
      type: DT_FLOAT
    }
  }
  attr {
    key: "_class"
    value {
      list {
        s: "loc:@oldpi/pi_mu/kernel"
      }
    }
  }
  attr {
    key: "_output_shapes"
    value {
      list {
        shape {
          dim {
            size: 400
          }
          dim {
            size: 1
          }
        }
      }
    }
  }
  attr {
    key: "use_locking"
    value {
      b: true
    }
  }
  attr {
    key: "validate_shape"
    value {
      b: true
    }
  }
}
node {
  name: "save/Assign_9"
  op: "Assign"
  input: "oldpi/pi_sigma"
  input: "save/RestoreV2:9"
  device: "/job:ps/task:0"
  attr {
    key: "T"
    value {
      type: DT_FLOAT
    }
  }
  attr {
    key: "_class"
    value {
      list {
        s: "loc:@oldpi/pi_sigma"
      }
    }
  }
  attr {
    key: "_output_shapes"
    value {
      list {
        shape {
          dim {
            size: 1
          }
        }
      }
    }
  }
  attr {
    key: "use_locking"
    value {
      b: true
    }
  }
  attr {
    key: "validate_shape"
    value {
      b: true
    }
  }
}
node {
  name: "save/Assign_10"
  op: "Assign"
  input: "oldvf/vf_l1/bias"
  input: "save/RestoreV2:10"
  device: "/job:ps/task:0"
  attr {
    key: "T"
    value {
      type: DT_FLOAT
    }
  }
  attr {
    key: "_class"
    value {
      list {
        s: "loc:@oldvf/vf_l1/bias"
      }
    }
  }
  attr {
    key: "_output_shapes"
    value {
      list {
        shape {
          dim {
            size: 400
          }
        }
      }
    }
  }
  attr {
    key: "use_locking"
    value {
      b: true
    }
  }
  attr {
    key: "validate_shape"
    value {
      b: true
    }
  }
}
node {
  name: "save/Assign_11"
  op: "Assign"
  input: "oldvf/vf_l1/kernel"
  input: "save/RestoreV2:11"
  device: "/job:ps/task:0"
  attr {
    key: "T"
    value {
      type: DT_FLOAT
    }
  }
  attr {
    key: "_class"
    value {
      list {
        s: "loc:@oldvf/vf_l1/kernel"
      }
    }
  }
  attr {
    key: "_output_shapes"
    value {
      list {
        shape {
          dim {
            size: 3
          }
          dim {
            size: 400
          }
        }
      }
    }
  }
  attr {
    key: "use_locking"
    value {
      b: true
    }
  }
  attr {
    key: "validate_shape"
    value {
      b: true
    }
  }
}
node {
  name: "save/Assign_12"
  op: "Assign"
  input: "oldvf/vf_l2/bias"
  input: "save/RestoreV2:12"
  device: "/job:ps/task:0"
  attr {
    key: "T"
    value {
      type: DT_FLOAT
    }
  }
  attr {
    key: "_class"
    value {
      list {
        s: "loc:@oldvf/vf_l2/bias"
      }
    }
  }
  attr {
    key: "_output_shapes"
    value {
      list {
        shape {
          dim {
            size: 400
          }
        }
      }
    }
  }
  attr {
    key: "use_locking"
    value {
      b: true
    }
  }
  attr {
    key: "validate_shape"
    value {
      b: true
    }
  }
}
node {
  name: "save/Assign_13"
  op: "Assign"
  input: "oldvf/vf_l2/kernel"
  input: "save/RestoreV2:13"
  device: "/job:ps/task:0"
  attr {
    key: "T"
    value {
      type: DT_FLOAT
    }
  }
  attr {
    key: "_class"
    value {
      list {
        s: "loc:@oldvf/vf_l2/kernel"
      }
    }
  }
  attr {
    key: "_output_shapes"
    value {
      list {
        shape {
          dim {
            size: 400
          }
          dim {
            size: 400
          }
        }
      }
    }
  }
  attr {
    key: "use_locking"
    value {
      b: true
    }
  }
  attr {
    key: "validate_shape"
    value {
      b: true
    }
  }
}
node {
  name: "save/Assign_14"
  op: "Assign"
  input: "oldvf/vf_output/bias"
  input: "save/RestoreV2:14"
  device: "/job:ps/task:0"
  attr {
    key: "T"
    value {
      type: DT_FLOAT
    }
  }
  attr {
    key: "_class"
    value {
      list {
        s: "loc:@oldvf/vf_output/bias"
      }
    }
  }
  attr {
    key: "_output_shapes"
    value {
      list {
        shape {
          dim {
            size: 1
          }
        }
      }
    }
  }
  attr {
    key: "use_locking"
    value {
      b: true
    }
  }
  attr {
    key: "validate_shape"
    value {
      b: true
    }
  }
}
node {
  name: "save/Assign_15"
  op: "Assign"
  input: "oldvf/vf_output/kernel"
  input: "save/RestoreV2:15"
  device: "/job:ps/task:0"
  attr {
    key: "T"
    value {
      type: DT_FLOAT
    }
  }
  attr {
    key: "_class"
    value {
      list {
        s: "loc:@oldvf/vf_output/kernel"
      }
    }
  }
  attr {
    key: "_output_shapes"
    value {
      list {
        shape {
          dim {
            size: 400
          }
          dim {
            size: 1
          }
        }
      }
    }
  }
  attr {
    key: "use_locking"
    value {
      b: true
    }
  }
  attr {
    key: "validate_shape"
    value {
      b: true
    }
  }
}
node {
  name: "save/Assign_16"
  op: "Assign"
  input: "pi/pi_l1/bias"
  input: "save/RestoreV2:16"
  device: "/job:ps/task:0"
  attr {
    key: "T"
    value {
      type: DT_FLOAT
    }
  }
  attr {
    key: "_class"
    value {
      list {
        s: "loc:@pi/pi_l1/bias"
      }
    }
  }
  attr {
    key: "_output_shapes"
    value {
      list {
        shape {
          dim {
            size: 400
          }
        }
      }
    }
  }
  attr {
    key: "use_locking"
    value {
      b: true
    }
  }
  attr {
    key: "validate_shape"
    value {
      b: true
    }
  }
}
node {
  name: "save/Assign_17"
  op: "Assign"
  input: "pi/pi_l1/kernel"
  input: "save/RestoreV2:17"
  device: "/job:ps/task:0"
  attr {
    key: "T"
    value {
      type: DT_FLOAT
    }
  }
  attr {
    key: "_class"
    value {
      list {
        s: "loc:@pi/pi_l1/kernel"
      }
    }
  }
  attr {
    key: "_output_shapes"
    value {
      list {
        shape {
          dim {
            size: 3
          }
          dim {
            size: 400
          }
        }
      }
    }
  }
  attr {
    key: "use_locking"
    value {
      b: true
    }
  }
  attr {
    key: "validate_shape"
    value {
      b: true
    }
  }
}
node {
  name: "save/Assign_18"
  op: "Assign"
  input: "pi/pi_l2/bias"
  input: "save/RestoreV2:18"
  device: "/job:ps/task:0"
  attr {
    key: "T"
    value {
      type: DT_FLOAT
    }
  }
  attr {
    key: "_class"
    value {
      list {
        s: "loc:@pi/pi_l2/bias"
      }
    }
  }
  attr {
    key: "_output_shapes"
    value {
      list {
        shape {
          dim {
            size: 400
          }
        }
      }
    }
  }
  attr {
    key: "use_locking"
    value {
      b: true
    }
  }
  attr {
    key: "validate_shape"
    value {
      b: true
    }
  }
}
node {
  name: "save/Assign_19"
  op: "Assign"
  input: "pi/pi_l2/kernel"
  input: "save/RestoreV2:19"
  device: "/job:ps/task:0"
  attr {
    key: "T"
    value {
      type: DT_FLOAT
    }
  }
  attr {
    key: "_class"
    value {
      list {
        s: "loc:@pi/pi_l2/kernel"
      }
    }
  }
  attr {
    key: "_output_shapes"
    value {
      list {
        shape {
          dim {
            size: 400
          }
          dim {
            size: 400
          }
        }
      }
    }
  }
  attr {
    key: "use_locking"
    value {
      b: true
    }
  }
  attr {
    key: "validate_shape"
    value {
      b: true
    }
  }
}
node {
  name: "save/Assign_20"
  op: "Assign"
  input: "pi/pi_mu/bias"
  input: "save/RestoreV2:20"
  device: "/job:ps/task:0"
  attr {
    key: "T"
    value {
      type: DT_FLOAT
    }
  }
  attr {
    key: "_class"
    value {
      list {
        s: "loc:@pi/pi_mu/bias"
      }
    }
  }
  attr {
    key: "_output_shapes"
    value {
      list {
        shape {
          dim {
            size: 1
          }
        }
      }
    }
  }
  attr {
    key: "use_locking"
    value {
      b: true
    }
  }
  attr {
    key: "validate_shape"
    value {
      b: true
    }
  }
}
node {
  name: "save/Assign_21"
  op: "Assign"
  input: "pi/pi_mu/kernel"
  input: "save/RestoreV2:21"
  device: "/job:ps/task:0"
  attr {
    key: "T"
    value {
      type: DT_FLOAT
    }
  }
  attr {
    key: "_class"
    value {
      list {
        s: "loc:@pi/pi_mu/kernel"
      }
    }
  }
  attr {
    key: "_output_shapes"
    value {
      list {
        shape {
          dim {
            size: 400
          }
          dim {
            size: 1
          }
        }
      }
    }
  }
  attr {
    key: "use_locking"
    value {
      b: true
    }
  }
  attr {
    key: "validate_shape"
    value {
      b: true
    }
  }
}
node {
  name: "save/Assign_22"
  op: "Assign"
  input: "pi/pi_sigma"
  input: "save/RestoreV2:22"
  device: "/job:ps/task:0"
  attr {
    key: "T"
    value {
      type: DT_FLOAT
    }
  }
  attr {
    key: "_class"
    value {
      list {
        s: "loc:@pi/pi_sigma"
      }
    }
  }
  attr {
    key: "_output_shapes"
    value {
      list {
        shape {
          dim {
            size: 1
          }
        }
      }
    }
  }
  attr {
    key: "use_locking"
    value {
      b: true
    }
  }
  attr {
    key: "validate_shape"
    value {
      b: true
    }
  }
}
node {
  name: "save/Assign_23"
  op: "Assign"
  input: "train/pi/pi_l1/bias/Adam"
  input: "save/RestoreV2:23"
  device: "/job:ps/task:0"
  attr {
    key: "T"
    value {
      type: DT_FLOAT
    }
  }
  attr {
    key: "_class"
    value {
      list {
        s: "loc:@pi/pi_l1/bias"
      }
    }
  }
  attr {
    key: "_output_shapes"
    value {
      list {
        shape {
          dim {
            size: 400
          }
        }
      }
    }
  }
  attr {
    key: "use_locking"
    value {
      b: true
    }
  }
  attr {
    key: "validate_shape"
    value {
      b: true
    }
  }
}
node {
  name: "save/Assign_24"
  op: "Assign"
  input: "train/pi/pi_l1/bias/Adam_1"
  input: "save/RestoreV2:24"
  device: "/job:ps/task:0"
  attr {
    key: "T"
    value {
      type: DT_FLOAT
    }
  }
  attr {
    key: "_class"
    value {
      list {
        s: "loc:@pi/pi_l1/bias"
      }
    }
  }
  attr {
    key: "_output_shapes"
    value {
      list {
        shape {
          dim {
            size: 400
          }
        }
      }
    }
  }
  attr {
    key: "use_locking"
    value {
      b: true
    }
  }
  attr {
    key: "validate_shape"
    value {
      b: true
    }
  }
}
node {
  name: "save/Assign_25"
  op: "Assign"
  input: "train/pi/pi_l1/kernel/Adam"
  input: "save/RestoreV2:25"
  device: "/job:ps/task:0"
  attr {
    key: "T"
    value {
      type: DT_FLOAT
    }
  }
  attr {
    key: "_class"
    value {
      list {
        s: "loc:@pi/pi_l1/kernel"
      }
    }
  }
  attr {
    key: "_output_shapes"
    value {
      list {
        shape {
          dim {
            size: 3
          }
          dim {
            size: 400
          }
        }
      }
    }
  }
  attr {
    key: "use_locking"
    value {
      b: true
    }
  }
  attr {
    key: "validate_shape"
    value {
      b: true
    }
  }
}
node {
  name: "save/Assign_26"
  op: "Assign"
  input: "train/pi/pi_l1/kernel/Adam_1"
  input: "save/RestoreV2:26"
  device: "/job:ps/task:0"
  attr {
    key: "T"
    value {
      type: DT_FLOAT
    }
  }
  attr {
    key: "_class"
    value {
      list {
        s: "loc:@pi/pi_l1/kernel"
      }
    }
  }
  attr {
    key: "_output_shapes"
    value {
      list {
        shape {
          dim {
            size: 3
          }
          dim {
            size: 400
          }
        }
      }
    }
  }
  attr {
    key: "use_locking"
    value {
      b: true
    }
  }
  attr {
    key: "validate_shape"
    value {
      b: true
    }
  }
}
node {
  name: "save/Assign_27"
  op: "Assign"
  input: "train/pi/pi_l2/bias/Adam"
  input: "save/RestoreV2:27"
  device: "/job:ps/task:0"
  attr {
    key: "T"
    value {
      type: DT_FLOAT
    }
  }
  attr {
    key: "_class"
    value {
      list {
        s: "loc:@pi/pi_l2/bias"
      }
    }
  }
  attr {
    key: "_output_shapes"
    value {
      list {
        shape {
          dim {
            size: 400
          }
        }
      }
    }
  }
  attr {
    key: "use_locking"
    value {
      b: true
    }
  }
  attr {
    key: "validate_shape"
    value {
      b: true
    }
  }
}
node {
  name: "save/Assign_28"
  op: "Assign"
  input: "train/pi/pi_l2/bias/Adam_1"
  input: "save/RestoreV2:28"
  device: "/job:ps/task:0"
  attr {
    key: "T"
    value {
      type: DT_FLOAT
    }
  }
  attr {
    key: "_class"
    value {
      list {
        s: "loc:@pi/pi_l2/bias"
      }
    }
  }
  attr {
    key: "_output_shapes"
    value {
      list {
        shape {
          dim {
            size: 400
          }
        }
      }
    }
  }
  attr {
    key: "use_locking"
    value {
      b: true
    }
  }
  attr {
    key: "validate_shape"
    value {
      b: true
    }
  }
}
node {
  name: "save/Assign_29"
  op: "Assign"
  input: "train/pi/pi_l2/kernel/Adam"
  input: "save/RestoreV2:29"
  device: "/job:ps/task:0"
  attr {
    key: "T"
    value {
      type: DT_FLOAT
    }
  }
  attr {
    key: "_class"
    value {
      list {
        s: "loc:@pi/pi_l2/kernel"
      }
    }
  }
  attr {
    key: "_output_shapes"
    value {
      list {
        shape {
          dim {
            size: 400
          }
          dim {
            size: 400
          }
        }
      }
    }
  }
  attr {
    key: "use_locking"
    value {
      b: true
    }
  }
  attr {
    key: "validate_shape"
    value {
      b: true
    }
  }
}
node {
  name: "save/Assign_30"
  op: "Assign"
  input: "train/pi/pi_l2/kernel/Adam_1"
  input: "save/RestoreV2:30"
  device: "/job:ps/task:0"
  attr {
    key: "T"
    value {
      type: DT_FLOAT
    }
  }
  attr {
    key: "_class"
    value {
      list {
        s: "loc:@pi/pi_l2/kernel"
      }
    }
  }
  attr {
    key: "_output_shapes"
    value {
      list {
        shape {
          dim {
            size: 400
          }
          dim {
            size: 400
          }
        }
      }
    }
  }
  attr {
    key: "use_locking"
    value {
      b: true
    }
  }
  attr {
    key: "validate_shape"
    value {
      b: true
    }
  }
}
node {
  name: "save/Assign_31"
  op: "Assign"
  input: "train/pi/pi_mu/bias/Adam"
  input: "save/RestoreV2:31"
  device: "/job:ps/task:0"
  attr {
    key: "T"
    value {
      type: DT_FLOAT
    }
  }
  attr {
    key: "_class"
    value {
      list {
        s: "loc:@pi/pi_mu/bias"
      }
    }
  }
  attr {
    key: "_output_shapes"
    value {
      list {
        shape {
          dim {
            size: 1
          }
        }
      }
    }
  }
  attr {
    key: "use_locking"
    value {
      b: true
    }
  }
  attr {
    key: "validate_shape"
    value {
      b: true
    }
  }
}
node {
  name: "save/Assign_32"
  op: "Assign"
  input: "train/pi/pi_mu/bias/Adam_1"
  input: "save/RestoreV2:32"
  device: "/job:ps/task:0"
  attr {
    key: "T"
    value {
      type: DT_FLOAT
    }
  }
  attr {
    key: "_class"
    value {
      list {
        s: "loc:@pi/pi_mu/bias"
      }
    }
  }
  attr {
    key: "_output_shapes"
    value {
      list {
        shape {
          dim {
            size: 1
          }
        }
      }
    }
  }
  attr {
    key: "use_locking"
    value {
      b: true
    }
  }
  attr {
    key: "validate_shape"
    value {
      b: true
    }
  }
}
node {
  name: "save/Assign_33"
  op: "Assign"
  input: "train/pi/pi_mu/kernel/Adam"
  input: "save/RestoreV2:33"
  device: "/job:ps/task:0"
  attr {
    key: "T"
    value {
      type: DT_FLOAT
    }
  }
  attr {
    key: "_class"
    value {
      list {
        s: "loc:@pi/pi_mu/kernel"
      }
    }
  }
  attr {
    key: "_output_shapes"
    value {
      list {
        shape {
          dim {
            size: 400
          }
          dim {
            size: 1
          }
        }
      }
    }
  }
  attr {
    key: "use_locking"
    value {
      b: true
    }
  }
  attr {
    key: "validate_shape"
    value {
      b: true
    }
  }
}
node {
  name: "save/Assign_34"
  op: "Assign"
  input: "train/pi/pi_mu/kernel/Adam_1"
  input: "save/RestoreV2:34"
  device: "/job:ps/task:0"
  attr {
    key: "T"
    value {
      type: DT_FLOAT
    }
  }
  attr {
    key: "_class"
    value {
      list {
        s: "loc:@pi/pi_mu/kernel"
      }
    }
  }
  attr {
    key: "_output_shapes"
    value {
      list {
        shape {
          dim {
            size: 400
          }
          dim {
            size: 1
          }
        }
      }
    }
  }
  attr {
    key: "use_locking"
    value {
      b: true
    }
  }
  attr {
    key: "validate_shape"
    value {
      b: true
    }
  }
}
node {
  name: "save/Assign_35"
  op: "Assign"
  input: "train/pi/pi_sigma/Adam"
  input: "save/RestoreV2:35"
  device: "/job:ps/task:0"
  attr {
    key: "T"
    value {
      type: DT_FLOAT
    }
  }
  attr {
    key: "_class"
    value {
      list {
        s: "loc:@pi/pi_sigma"
      }
    }
  }
  attr {
    key: "_output_shapes"
    value {
      list {
        shape {
          dim {
            size: 1
          }
        }
      }
    }
  }
  attr {
    key: "use_locking"
    value {
      b: true
    }
  }
  attr {
    key: "validate_shape"
    value {
      b: true
    }
  }
}
node {
  name: "save/Assign_36"
  op: "Assign"
  input: "train/pi/pi_sigma/Adam_1"
  input: "save/RestoreV2:36"
  device: "/job:ps/task:0"
  attr {
    key: "T"
    value {
      type: DT_FLOAT
    }
  }
  attr {
    key: "_class"
    value {
      list {
        s: "loc:@pi/pi_sigma"
      }
    }
  }
  attr {
    key: "_output_shapes"
    value {
      list {
        shape {
          dim {
            size: 1
          }
        }
      }
    }
  }
  attr {
    key: "use_locking"
    value {
      b: true
    }
  }
  attr {
    key: "validate_shape"
    value {
      b: true
    }
  }
}
node {
  name: "save/Assign_37"
  op: "Assign"
  input: "train/vf/vf_l1/bias/Adam"
  input: "save/RestoreV2:37"
  device: "/job:ps/task:0"
  attr {
    key: "T"
    value {
      type: DT_FLOAT
    }
  }
  attr {
    key: "_class"
    value {
      list {
        s: "loc:@vf/vf_l1/bias"
      }
    }
  }
  attr {
    key: "_output_shapes"
    value {
      list {
        shape {
          dim {
            size: 400
          }
        }
      }
    }
  }
  attr {
    key: "use_locking"
    value {
      b: true
    }
  }
  attr {
    key: "validate_shape"
    value {
      b: true
    }
  }
}
node {
  name: "save/Assign_38"
  op: "Assign"
  input: "train/vf/vf_l1/bias/Adam_1"
  input: "save/RestoreV2:38"
  device: "/job:ps/task:0"
  attr {
    key: "T"
    value {
      type: DT_FLOAT
    }
  }
  attr {
    key: "_class"
    value {
      list {
        s: "loc:@vf/vf_l1/bias"
      }
    }
  }
  attr {
    key: "_output_shapes"
    value {
      list {
        shape {
          dim {
            size: 400
          }
        }
      }
    }
  }
  attr {
    key: "use_locking"
    value {
      b: true
    }
  }
  attr {
    key: "validate_shape"
    value {
      b: true
    }
  }
}
node {
  name: "save/Assign_39"
  op: "Assign"
  input: "train/vf/vf_l1/kernel/Adam"
  input: "save/RestoreV2:39"
  device: "/job:ps/task:0"
  attr {
    key: "T"
    value {
      type: DT_FLOAT
    }
  }
  attr {
    key: "_class"
    value {
      list {
        s: "loc:@vf/vf_l1/kernel"
      }
    }
  }
  attr {
    key: "_output_shapes"
    value {
      list {
        shape {
          dim {
            size: 3
          }
          dim {
            size: 400
          }
        }
      }
    }
  }
  attr {
    key: "use_locking"
    value {
      b: true
    }
  }
  attr {
    key: "validate_shape"
    value {
      b: true
    }
  }
}
node {
  name: "save/Assign_40"
  op: "Assign"
  input: "train/vf/vf_l1/kernel/Adam_1"
  input: "save/RestoreV2:40"
  device: "/job:ps/task:0"
  attr {
    key: "T"
    value {
      type: DT_FLOAT
    }
  }
  attr {
    key: "_class"
    value {
      list {
        s: "loc:@vf/vf_l1/kernel"
      }
    }
  }
  attr {
    key: "_output_shapes"
    value {
      list {
        shape {
          dim {
            size: 3
          }
          dim {
            size: 400
          }
        }
      }
    }
  }
  attr {
    key: "use_locking"
    value {
      b: true
    }
  }
  attr {
    key: "validate_shape"
    value {
      b: true
    }
  }
}
node {
  name: "save/Assign_41"
  op: "Assign"
  input: "train/vf/vf_l2/bias/Adam"
  input: "save/RestoreV2:41"
  device: "/job:ps/task:0"
  attr {
    key: "T"
    value {
      type: DT_FLOAT
    }
  }
  attr {
    key: "_class"
    value {
      list {
        s: "loc:@vf/vf_l2/bias"
      }
    }
  }
  attr {
    key: "_output_shapes"
    value {
      list {
        shape {
          dim {
            size: 400
          }
        }
      }
    }
  }
  attr {
    key: "use_locking"
    value {
      b: true
    }
  }
  attr {
    key: "validate_shape"
    value {
      b: true
    }
  }
}
node {
  name: "save/Assign_42"
  op: "Assign"
  input: "train/vf/vf_l2/bias/Adam_1"
  input: "save/RestoreV2:42"
  device: "/job:ps/task:0"
  attr {
    key: "T"
    value {
      type: DT_FLOAT
    }
  }
  attr {
    key: "_class"
    value {
      list {
        s: "loc:@vf/vf_l2/bias"
      }
    }
  }
  attr {
    key: "_output_shapes"
    value {
      list {
        shape {
          dim {
            size: 400
          }
        }
      }
    }
  }
  attr {
    key: "use_locking"
    value {
      b: true
    }
  }
  attr {
    key: "validate_shape"
    value {
      b: true
    }
  }
}
node {
  name: "save/Assign_43"
  op: "Assign"
  input: "train/vf/vf_l2/kernel/Adam"
  input: "save/RestoreV2:43"
  device: "/job:ps/task:0"
  attr {
    key: "T"
    value {
      type: DT_FLOAT
    }
  }
  attr {
    key: "_class"
    value {
      list {
        s: "loc:@vf/vf_l2/kernel"
      }
    }
  }
  attr {
    key: "_output_shapes"
    value {
      list {
        shape {
          dim {
            size: 400
          }
          dim {
            size: 400
          }
        }
      }
    }
  }
  attr {
    key: "use_locking"
    value {
      b: true
    }
  }
  attr {
    key: "validate_shape"
    value {
      b: true
    }
  }
}
node {
  name: "save/Assign_44"
  op: "Assign"
  input: "train/vf/vf_l2/kernel/Adam_1"
  input: "save/RestoreV2:44"
  device: "/job:ps/task:0"
  attr {
    key: "T"
    value {
      type: DT_FLOAT
    }
  }
  attr {
    key: "_class"
    value {
      list {
        s: "loc:@vf/vf_l2/kernel"
      }
    }
  }
  attr {
    key: "_output_shapes"
    value {
      list {
        shape {
          dim {
            size: 400
          }
          dim {
            size: 400
          }
        }
      }
    }
  }
  attr {
    key: "use_locking"
    value {
      b: true
    }
  }
  attr {
    key: "validate_shape"
    value {
      b: true
    }
  }
}
node {
  name: "save/Assign_45"
  op: "Assign"
  input: "train/vf/vf_output/bias/Adam"
  input: "save/RestoreV2:45"
  device: "/job:ps/task:0"
  attr {
    key: "T"
    value {
      type: DT_FLOAT
    }
  }
  attr {
    key: "_class"
    value {
      list {
        s: "loc:@vf/vf_output/bias"
      }
    }
  }
  attr {
    key: "_output_shapes"
    value {
      list {
        shape {
          dim {
            size: 1
          }
        }
      }
    }
  }
  attr {
    key: "use_locking"
    value {
      b: true
    }
  }
  attr {
    key: "validate_shape"
    value {
      b: true
    }
  }
}
node {
  name: "save/Assign_46"
  op: "Assign"
  input: "train/vf/vf_output/bias/Adam_1"
  input: "save/RestoreV2:46"
  device: "/job:ps/task:0"
  attr {
    key: "T"
    value {
      type: DT_FLOAT
    }
  }
  attr {
    key: "_class"
    value {
      list {
        s: "loc:@vf/vf_output/bias"
      }
    }
  }
  attr {
    key: "_output_shapes"
    value {
      list {
        shape {
          dim {
            size: 1
          }
        }
      }
    }
  }
  attr {
    key: "use_locking"
    value {
      b: true
    }
  }
  attr {
    key: "validate_shape"
    value {
      b: true
    }
  }
}
node {
  name: "save/Assign_47"
  op: "Assign"
  input: "train/vf/vf_output/kernel/Adam"
  input: "save/RestoreV2:47"
  device: "/job:ps/task:0"
  attr {
    key: "T"
    value {
      type: DT_FLOAT
    }
  }
  attr {
    key: "_class"
    value {
      list {
        s: "loc:@vf/vf_output/kernel"
      }
    }
  }
  attr {
    key: "_output_shapes"
    value {
      list {
        shape {
          dim {
            size: 400
          }
          dim {
            size: 1
          }
        }
      }
    }
  }
  attr {
    key: "use_locking"
    value {
      b: true
    }
  }
  attr {
    key: "validate_shape"
    value {
      b: true
    }
  }
}
node {
  name: "save/Assign_48"
  op: "Assign"
  input: "train/vf/vf_output/kernel/Adam_1"
  input: "save/RestoreV2:48"
  device: "/job:ps/task:0"
  attr {
    key: "T"
    value {
      type: DT_FLOAT
    }
  }
  attr {
    key: "_class"
    value {
      list {
        s: "loc:@vf/vf_output/kernel"
      }
    }
  }
  attr {
    key: "_output_shapes"
    value {
      list {
        shape {
          dim {
            size: 400
          }
          dim {
            size: 1
          }
        }
      }
    }
  }
  attr {
    key: "use_locking"
    value {
      b: true
    }
  }
  attr {
    key: "validate_shape"
    value {
      b: true
    }
  }
}
node {
  name: "save/Assign_49"
  op: "Assign"
  input: "vf/vf_l1/bias"
  input: "save/RestoreV2:49"
  device: "/job:ps/task:0"
  attr {
    key: "T"
    value {
      type: DT_FLOAT
    }
  }
  attr {
    key: "_class"
    value {
      list {
        s: "loc:@vf/vf_l1/bias"
      }
    }
  }
  attr {
    key: "_output_shapes"
    value {
      list {
        shape {
          dim {
            size: 400
          }
        }
      }
    }
  }
  attr {
    key: "use_locking"
    value {
      b: true
    }
  }
  attr {
    key: "validate_shape"
    value {
      b: true
    }
  }
}
node {
  name: "save/Assign_50"
  op: "Assign"
  input: "vf/vf_l1/kernel"
  input: "save/RestoreV2:50"
  device: "/job:ps/task:0"
  attr {
    key: "T"
    value {
      type: DT_FLOAT
    }
  }
  attr {
    key: "_class"
    value {
      list {
        s: "loc:@vf/vf_l1/kernel"
      }
    }
  }
  attr {
    key: "_output_shapes"
    value {
      list {
        shape {
          dim {
            size: 3
          }
          dim {
            size: 400
          }
        }
      }
    }
  }
  attr {
    key: "use_locking"
    value {
      b: true
    }
  }
  attr {
    key: "validate_shape"
    value {
      b: true
    }
  }
}
node {
  name: "save/Assign_51"
  op: "Assign"
  input: "vf/vf_l2/bias"
  input: "save/RestoreV2:51"
  device: "/job:ps/task:0"
  attr {
    key: "T"
    value {
      type: DT_FLOAT
    }
  }
  attr {
    key: "_class"
    value {
      list {
        s: "loc:@vf/vf_l2/bias"
      }
    }
  }
  attr {
    key: "_output_shapes"
    value {
      list {
        shape {
          dim {
            size: 400
          }
        }
      }
    }
  }
  attr {
    key: "use_locking"
    value {
      b: true
    }
  }
  attr {
    key: "validate_shape"
    value {
      b: true
    }
  }
}
node {
  name: "save/Assign_52"
  op: "Assign"
  input: "vf/vf_l2/kernel"
  input: "save/RestoreV2:52"
  device: "/job:ps/task:0"
  attr {
    key: "T"
    value {
      type: DT_FLOAT
    }
  }
  attr {
    key: "_class"
    value {
      list {
        s: "loc:@vf/vf_l2/kernel"
      }
    }
  }
  attr {
    key: "_output_shapes"
    value {
      list {
        shape {
          dim {
            size: 400
          }
          dim {
            size: 400
          }
        }
      }
    }
  }
  attr {
    key: "use_locking"
    value {
      b: true
    }
  }
  attr {
    key: "validate_shape"
    value {
      b: true
    }
  }
}
node {
  name: "save/Assign_53"
  op: "Assign"
  input: "vf/vf_output/bias"
  input: "save/RestoreV2:53"
  device: "/job:ps/task:0"
  attr {
    key: "T"
    value {
      type: DT_FLOAT
    }
  }
  attr {
    key: "_class"
    value {
      list {
        s: "loc:@vf/vf_output/bias"
      }
    }
  }
  attr {
    key: "_output_shapes"
    value {
      list {
        shape {
          dim {
            size: 1
          }
        }
      }
    }
  }
  attr {
    key: "use_locking"
    value {
      b: true
    }
  }
  attr {
    key: "validate_shape"
    value {
      b: true
    }
  }
}
node {
  name: "save/Assign_54"
  op: "Assign"
  input: "vf/vf_output/kernel"
  input: "save/RestoreV2:54"
  device: "/job:ps/task:0"
  attr {
    key: "T"
    value {
      type: DT_FLOAT
    }
  }
  attr {
    key: "_class"
    value {
      list {
        s: "loc:@vf/vf_output/kernel"
      }
    }
  }
  attr {
    key: "_output_shapes"
    value {
      list {
        shape {
          dim {
            size: 400
          }
          dim {
            size: 1
          }
        }
      }
    }
  }
  attr {
    key: "use_locking"
    value {
      b: true
    }
  }
  attr {
    key: "validate_shape"
    value {
      b: true
    }
  }
}
node {
  name: "save/restore_shard"
  op: "NoOp"
  input: "^save/Assign"
  input: "^save/Assign_1"
  input: "^save/Assign_10"
  input: "^save/Assign_11"
  input: "^save/Assign_12"
  input: "^save/Assign_13"
  input: "^save/Assign_14"
  input: "^save/Assign_15"
  input: "^save/Assign_16"
  input: "^save/Assign_17"
  input: "^save/Assign_18"
  input: "^save/Assign_19"
  input: "^save/Assign_2"
  input: "^save/Assign_20"
  input: "^save/Assign_21"
  input: "^save/Assign_22"
  input: "^save/Assign_23"
  input: "^save/Assign_24"
  input: "^save/Assign_25"
  input: "^save/Assign_26"
  input: "^save/Assign_27"
  input: "^save/Assign_28"
  input: "^save/Assign_29"
  input: "^save/Assign_3"
  input: "^save/Assign_30"
  input: "^save/Assign_31"
  input: "^save/Assign_32"
  input: "^save/Assign_33"
  input: "^save/Assign_34"
  input: "^save/Assign_35"
  input: "^save/Assign_36"
  input: "^save/Assign_37"
  input: "^save/Assign_38"
  input: "^save/Assign_39"
  input: "^save/Assign_4"
  input: "^save/Assign_40"
  input: "^save/Assign_41"
  input: "^save/Assign_42"
  input: "^save/Assign_43"
  input: "^save/Assign_44"
  input: "^save/Assign_45"
  input: "^save/Assign_46"
  input: "^save/Assign_47"
  input: "^save/Assign_48"
  input: "^save/Assign_49"
  input: "^save/Assign_5"
  input: "^save/Assign_50"
  input: "^save/Assign_51"
  input: "^save/Assign_52"
  input: "^save/Assign_53"
  input: "^save/Assign_54"
  input: "^save/Assign_6"
  input: "^save/Assign_7"
  input: "^save/Assign_8"
  input: "^save/Assign_9"
  device: "/job:ps/task:0"
}
node {
  name: "save/restore_all"
  op: "NoOp"
  input: "^save/restore_shard"
  device: "/job:ps/task:0"
}
versions {
  producer: 27
}
